…
I0418 11:19:50.151828  6357 net.cpp:58] Initializing net from parameters: 
name: "conv_lstm_deconv"
state {
  phase: TRAIN
  level: 0
  stage: ""
}
layer {
  name: "data"
  type: "VideoData"
  top: "data"
  top: "cont"
  transform_param {
    scale: 0.0039215689
    mean_file: "/home/luowx/datasets/avenue_mean_225_gray.binaryproto"
  }
  video_data_param {
    source: "/home/luowx/conv_lstm_master/zstorm_conv_lstm_deconv/input.txt"
    batch_size: 8
    shuffle: true
    new_height: 225
    new_width: 225
    is_color: false
    t: 10
    stride: false
  }
}
layer {
  name: "data_slice"
  type: "Slice"
  bottom: "data"
  top: "data_slice_1"
  top: "data_slice_2"
  slice_param {
    slice_point: 9
    axis: 0
  }
}
layer {
  name: "data_slice_2_silence"
  type: "Silence"
  bottom: "data_slice_2"
}
layer {
  name: "conv1"
  type: "Convolution"
  bottom: "data"
  top: "conv1"
  param {
    lr_mult: 1
    decay_mult: 1
  }
  param {
    lr_mult: 2
    decay_mult: 0
  }
  convolution_param {
    num_output: 128
    pad: 3
    kernel_size: 7
    stride: 4
    weight_filler {
      type: "xavier"
    }
    bias_filler {
      type: "constant"
      value: 0
    }
    engine: CUDNN
    axis: 2
  }
}
layer {
  name: "conv_relu1"
  type: "ReLU"
  bottom: "conv1"
  top: "conv1"
  relu_param {
    engine: CAFFE
  }
}
layer {
  name: "conv2"
  type: "Convolution"
  bottom: "conv1"
  top: "conv2"
  param {
    lr_mult: 1
    decay_mult: 1
  }
  param {
    lr_mult: 2
    decay_mult: 0
  }
  convolution_param {
    num_output: 256
    pad: 2
    kernel_size: 5
    stride: 2
    weight_filler {
      type: "xavier"
    }
    bias_filler {
      type: "constant"
      value: 0
    }
    engine: CUDNN
    axis: 2
  }
}
layer {
  name: "conv_relu2"
  type: "ReLU"
  bottom: "conv2"
  top: "conv2"
  relu_param {
    engine: CAFFE
  }
}
layer {
  name: "conv3"
  type: "Convolution"
  bottom: "conv2"
  top: "conv3"
  param {
    lr_mult: 1
    decay_mult: 1
  }
  param {
    lr_mult: 2
    decay_mult: 0
  }
  convolution_param {
    num_output: 512
    pad: 1
    kernel_size: 3
    stride: 2
    weight_filler {
      type: "xavier"
    }
    bias_filler {
      type: "constant"
      value: 0
    }
    engine: CUDNN
    axis: 2
  }
}
layer {
  name: "conv_relu3"
  type: "ReLU"
  bottom: "conv3"
  top: "conv3"
  relu_param {
    engine: CAFFE
  }
}
layer {
  name: "convlstm1"
  type: "ConvolutionLSTM"
  bottom: "conv3"
  bottom: "cont"
  top: "convlstm1"
  param {
    lr_mult: 1
    decay_mult: 1
  }
  param {
    lr_mult: 2
    decay_mult: 0
  }
  param {
    lr_mult: 1
    decay_mult: 1
  }
  recurrent_param {
    num_output: 512
    wxc_convolution_param {
      pad: 1
      kernel_size: 3
      stride: 1
      weight_filler {
        type: "xavier"
      }
      bias_filler {
        type: "constant"
        value: 0
      }
      engine: CUDNN
    }
    whh_convolution_param {
      bias_term: false
      pad: 1
      kernel_size: 3
      stride: 1
      weight_filler {
        type: "xavier"
      }
      engine: CUDNN
    }
  }
}
layer {
  name: "convlstm1_slice"
  type: "Slice"
  bottom: "convlstm1"
  top: "convlstm1_slice_1"
  top: "convlstm1_slice_2"
  slice_param {
    slice_point: 1
    axis: 0
  }
}
layer {
  name: "convlstm1_slice_1_silence"
  type: "Silence"
  bottom: "convlstm1_slice_1"
}
layer {
  name: "deconv1_1"
  type: "Deconvolution"
  bottom: "convlstm1"
  top: "deconv1_1"
  param {
    lr_mult: 1
    decay_mult: 1
  }
  param {
    lr_mult: 2
    decay_mult: 0
  }
  convolution_param {
    num_output: 256
    pad: 1
    kernel_size: 3
    stride: 2
    weight_filler {
      type: "xavier"
    }
    bias_filler {
      type: "constant"
      value: 0
    }
    engine: CUDNN
    axis: 2
  }
}
layer {
  name: "deconv_relu1_1"
  type: "ReLU"
  bottom: "deconv1_1"
  top: "deconv1_1"
  relu_param {
    engine: CAFFE
  }
}
layer {
  name: "deconv2_1"
  type: "Deconvolution"
  bottom: "deconv1_1"
  top: "deconv2_1"
  param {
    lr_mult: 1
    decay_mult: 1
  }
  param {
    lr_mult: 2
    decay_mult: 0
  }
  convolution_param {
    num_output: 128
    pad: 2
    kernel_size: 5
    stride: 2
    weight_filler {
      type: "xavier"
    }
    bias_filler {
      type: "constant"
      value: 0
    }
    engine: CUDNN
    axis: 2
  }
}
layer {
  name: "deconv_relu2_1"
  type: "ReLU"
  bottom: "deconv2_1"
  top: "deconv2_1"
  relu_param {
    engine: CAFFE
  }
}
layer {
  name: "deconv3_1"
  type: "Deconvolution"
  bottom: "deconv2_1"
  top: "deconv3_1"
  param {
    lr_mult: 1
    decay_mult: 1
  }
  param {
    lr_mult: 2
    decay_mult: 0
  }
  convolution_param {
    num_output: 1
    pad: 3
    kernel_size: 7
    stride: 4
    weight_filler {
      type: "xavier"
    }
    bias_filler {
      type: "constant"
      value: 0
    }
    engine: CUDNN
    axis: 2
  }
}
layer {
  name: "deconv_tanh3_1"
  type: "TanH"
  bottom: "deconv3_1"
  top: "deconv3_1"
  tanh_param {
    engine: CAFFE
  }
}
layer {
  name: "deconv1_2"
  type: "Deconvolution"
  bottom: "convlstm1_slice_2"
  top: "deconv1_2"
  param {
    lr_mult: 1
    decay_mult: 1
  }
  param {
    lr_mult: 2
    decay_mult: 0
  }
  convolution_param {
    num_output: 256
    pad: 1
    kernel_size: 3
    stride: 2
    weight_filler {
      type: "xavier"
    }
    bias_filler {
      type: "constant"
      value: 0
    }
    engine: CUDNN
    axis: 2
  }
}
layer {
  name: "deconv_relu1_2"
  type: "ReLU"
  bottom: "deconv1_2"
  top: "deconv1_2"
  relu_param {
    engine: CAFFE
  }
}
layer {
  name: "deconv2_2"
  type: "Deconvolution"
  bottom: "deconv1_2"
  top: "deconv2_2"
  param {
    lr_mult: 1
    decay_mult: 1
  }
  param {
    lr_mult: 2
    decay_mult: 0
  }
  convolution_param {
    num_output: 128
    pad: 2
    kernel_size: 5
    stride: 2
    weight_filler {
      type: "xavier"
    }
    bias_filler {
      type: "constant"
      value: 0
    }
    engine: CUDNN
    axis: 2
  }
}
layer {
  name: "deconv_relu2_2"
  type: "ReLU"
  bottom: "deconv2_2"
  top: "deconv2_2"
  relu_param {
    engine: CAFFE
  }
}
layer {
  name: "deconv3_2"
  type: "Deconvolution"
  bottom: "deconv2_2"
  top: "deconv3_2"
  param {
    lr_mult: 1
    decay_mult: 1
  }
  param {
    lr_mult: 2
    decay_mult: 0
  }
  convolution_param {
    num_output: 1
    pad: 3
    kernel_size: 7
    stride: 4
    weight_filler {
      type: "xavier"
    }
    bias_filler {
      type: "constant"
      value: 0
    }
    engine: CUDNN
    axis: 2
  }
}
layer {
  name: "deconv_tanh3_2"
  type: "TanH"
  bottom: "deconv3_2"
  top: "deconv3_2"
  tanh_param {
    engine: CAFFE
  }
}
layer {
  name: "loss_current"
  type: "EuclideanLoss"
  bottom: "deconv3_1"
  bottom: "data"
  top: "loss_current"
}
layer {
  name: "loss_past"
  type: "EuclideanLoss"
  bottom: "deconv3_2"
  bottom: "data_slice_1"
  top: "loss_past"
}
I0418 11:19:50.152001  6357 layer_factory.hpp:77] Creating layer data
I0418 11:19:50.152055  6357 net.cpp:101] Creating Layer data
I0418 11:19:50.152065  6357 net.cpp:409] data -> data
I0418 11:19:50.152096  6357 net.cpp:409] data -> cont
I0418 11:19:50.152109  6357 data_transformer.cpp:25] Loading mean file from: /home/luowx/datasets/avenue_mean_225_gray.binaryproto
I0418 11:19:50.169919  6357 video_data_layer.cpp:41] Opening file /home/luowx/conv_lstm_master/zstorm_conv_lstm_deconv/input.txt
I0418 11:19:50.170336  6357 video_data_layer.cpp:56] Shuffling data
I0418 11:19:50.170348  6357 video_data_layer.cpp:59] A total of 16 videos.
I0418 11:19:50.977609  6357 video_data_layer.cpp:94] output data size: 10,8,1,225,225
I0418 11:19:51.025843  6357 net.cpp:151] Setting up data
I0418 11:19:51.025890  6357 net.cpp:158] Top shape: 10 8 1 225 225 (4050000)
I0418 11:19:51.025902  6357 net.cpp:158] Top shape: 10 8 (80)
I0418 11:19:51.025909  6357 net.cpp:166] Memory required for data: 16200320
I0418 11:19:51.025969  6357 layer_factory.hpp:77] Creating layer data_data_0_split
I0418 11:19:51.026079  6357 net.cpp:101] Creating Layer data_data_0_split
I0418 11:19:51.026100  6357 net.cpp:435] data_data_0_split <- data
I0418 11:19:51.026134  6357 net.cpp:409] data_data_0_split -> data_data_0_split_0
I0418 11:19:51.026156  6357 net.cpp:409] data_data_0_split -> data_data_0_split_1
I0418 11:19:51.026175  6357 net.cpp:409] data_data_0_split -> data_data_0_split_2
I0418 11:19:51.026291  6357 net.cpp:151] Setting up data_data_0_split
I0418 11:19:51.026305  6357 net.cpp:158] Top shape: 10 8 1 225 225 (4050000)
I0418 11:19:51.026314  6357 net.cpp:158] Top shape: 10 8 1 225 225 (4050000)
I0418 11:19:51.026322  6357 net.cpp:158] Top shape: 10 8 1 225 225 (4050000)
I0418 11:19:51.026327  6357 net.cpp:166] Memory required for data: 64800320
I0418 11:19:51.026345  6357 layer_factory.hpp:77] Creating layer data_slice
I0418 11:19:51.026370  6357 net.cpp:101] Creating Layer data_slice
I0418 11:19:51.026378  6357 net.cpp:435] data_slice <- data_data_0_split_0
I0418 11:19:51.026391  6357 net.cpp:409] data_slice -> data_slice_1
I0418 11:19:51.026408  6357 net.cpp:409] data_slice -> data_slice_2
I0418 11:19:51.026473  6357 net.cpp:151] Setting up data_slice
I0418 11:19:51.026484  6357 net.cpp:158] Top shape: 9 8 1 225 225 (3645000)
I0418 11:19:51.026492  6357 net.cpp:158] Top shape: 1 8 1 225 225 (405000)
I0418 11:19:51.026499  6357 net.cpp:166] Memory required for data: 81000320
I0418 11:19:51.026504  6357 layer_factory.hpp:77] Creating layer data_slice_2_silence
I0418 11:19:51.026532  6357 net.cpp:101] Creating Layer data_slice_2_silence
I0418 11:19:51.026541  6357 net.cpp:435] data_slice_2_silence <- data_slice_2
I0418 11:19:51.026549  6357 net.cpp:151] Setting up data_slice_2_silence
I0418 11:19:51.026554  6357 net.cpp:166] Memory required for data: 81000320
I0418 11:19:51.026561  6357 layer_factory.hpp:77] Creating layer conv1
I0418 11:19:51.026612  6357 net.cpp:101] Creating Layer conv1
I0418 11:19:51.026620  6357 net.cpp:435] conv1 <- data_data_0_split_1
I0418 11:19:51.026633  6357 net.cpp:409] conv1 -> conv1
I0418 11:19:51.892262  6357 net.cpp:151] Setting up conv1
I0418 11:19:51.892290  6357 net.cpp:158] Top shape: 10 8 128 57 57 (33269760)
I0418 11:19:51.892293  6357 net.cpp:166] Memory required for data: 214079360
I0418 11:19:51.892318  6357 layer_factory.hpp:77] Creating layer conv_relu1
I0418 11:19:51.892352  6357 net.cpp:101] Creating Layer conv_relu1
I0418 11:19:51.892356  6357 net.cpp:435] conv_relu1 <- conv1
I0418 11:19:51.892362  6357 net.cpp:396] conv_relu1 -> conv1 (in-place)
I0418 11:19:51.892374  6357 net.cpp:151] Setting up conv_relu1
I0418 11:19:51.892377  6357 net.cpp:158] Top shape: 10 8 128 57 57 (33269760)
I0418 11:19:51.892379  6357 net.cpp:166] Memory required for data: 347158400
I0418 11:19:51.892381  6357 layer_factory.hpp:77] Creating layer conv2
I0418 11:19:51.892391  6357 net.cpp:101] Creating Layer conv2
I0418 11:19:51.892393  6357 net.cpp:435] conv2 <- conv1
I0418 11:19:51.892398  6357 net.cpp:409] conv2 -> conv2
I0418 11:19:51.898975  6357 net.cpp:151] Setting up conv2
I0418 11:19:51.898989  6357 net.cpp:158] Top shape: 10 8 256 29 29 (17223680)
I0418 11:19:51.898993  6357 net.cpp:166] Memory required for data: 416053120
I0418 11:19:51.899001  6357 layer_factory.hpp:77] Creating layer conv_relu2
I0418 11:19:51.899035  6357 net.cpp:101] Creating Layer conv_relu2
I0418 11:19:51.899039  6357 net.cpp:435] conv_relu2 <- conv2
I0418 11:19:51.899042  6357 net.cpp:396] conv_relu2 -> conv2 (in-place)
I0418 11:19:51.899049  6357 net.cpp:151] Setting up conv_relu2
I0418 11:19:51.899052  6357 net.cpp:158] Top shape: 10 8 256 29 29 (17223680)
I0418 11:19:51.899054  6357 net.cpp:166] Memory required for data: 484947840
I0418 11:19:51.899065  6357 layer_factory.hpp:77] Creating layer conv3
I0418 11:19:51.899075  6357 net.cpp:101] Creating Layer conv3
I0418 11:19:51.899078  6357 net.cpp:435] conv3 <- conv2
I0418 11:19:51.899081  6357 net.cpp:409] conv3 -> conv3
I0418 11:19:51.907449  6357 net.cpp:151] Setting up conv3
I0418 11:19:51.907464  6357 net.cpp:158] Top shape: 10 8 512 15 15 (9216000)
I0418 11:19:51.907466  6357 net.cpp:166] Memory required for data: 521811840
I0418 11:19:51.907477  6357 layer_factory.hpp:77] Creating layer conv_relu3
I0418 11:19:51.907485  6357 net.cpp:101] Creating Layer conv_relu3
I0418 11:19:51.907486  6357 net.cpp:435] conv_relu3 <- conv3
I0418 11:19:51.907491  6357 net.cpp:396] conv_relu3 -> conv3 (in-place)
I0418 11:19:51.907497  6357 net.cpp:151] Setting up conv_relu3
I0418 11:19:51.907500  6357 net.cpp:158] Top shape: 10 8 512 15 15 (9216000)
I0418 11:19:51.907502  6357 net.cpp:166] Memory required for data: 558675840
I0418 11:19:51.907505  6357 layer_factory.hpp:77] Creating layer convlstm1
I0418 11:19:51.907527  6357 net.cpp:101] Creating Layer convlstm1
I0418 11:19:51.907531  6357 net.cpp:435] convlstm1 <- conv3
I0418 11:19:51.907533  6357 net.cpp:435] convlstm1 <- cont
I0418 11:19:51.907538  6357 net.cpp:409] convlstm1 -> convlstm1
I0418 11:19:51.907551  6357 recurrent_layer.cpp:32] Initializing recurrent layer: assuming input batch contains 10 timesteps of 8 independent streams, 512 channels, 15 height, 15 width.
I0418 11:19:51.908113  6357 net.cpp:58] Initializing net from parameters: 
layer {
  name: "convlstm1_"
  type: "Input"
  top: "x"
  top: "cont"
  input_param {
    shape {
      dim: 10
      dim: 8
      dim: 512
      dim: 15
      dim: 15
    }
    shape {
      dim: 10
      dim: 8
    }
  }
}
layer {
  name: "convlstm1_"
  type: "Input"
  top: "c_0"
  top: "h_0"
  input_param {
    shape {
      dim: 1
      dim: 8
      dim: 512
      dim: 15
      dim: 15
    }
    shape {
      dim: 1
      dim: 8
      dim: 512
      dim: 15
      dim: 15
    }
  }
}
layer {
  name: "convlstm1_cont_slice"
  type: "Slice"
  bottom: "cont"
  top: "cont_1"
  top: "cont_2"
  top: "cont_3"
  top: "cont_4"
  top: "cont_5"
  top: "cont_6"
  top: "cont_7"
  top: "cont_8"
  top: "cont_9"
  top: "cont_10"
  slice_param {
    axis: 0
  }
}
layer {
  name: "convlstm1_x_transform"
  type: "Convolution"
  bottom: "x"
  top: "W_xc_x"
  param {
    name: "W_xc"
  }
  param {
    name: "b_c"
  }
  propagate_down: true
  convolution_param {
    num_output: 2048
    bias_term: true
    pad: 1
    kernel_size: 3
    stride: 1
    weight_filler {
      type: "xavier"
    }
    bias_filler {
      type: "constant"
      value: 0
    }
    engine: CUDNN
    axis: 2
  }
}
layer {
  name: "convlstm1_W_xc_x_slice"
  type: "Slice"
  bottom: "W_xc_x"
  top: "W_xc_x_1"
  top: "W_xc_x_2"
  top: "W_xc_x_3"
  top: "W_xc_x_4"
  top: "W_xc_x_5"
  top: "W_xc_x_6"
  top: "W_xc_x_7"
  top: "W_xc_x_8"
  top: "W_xc_x_9"
  top: "W_xc_x_10"
  slice_param {
    axis: 0
  }
}
layer {
  name: "convlstm1_h_conted_0"
  type: "Scale"
  bottom: "h_0"
  bottom: "cont_1"
  top: "h_conted_0"
  scale_param {
    axis: 0
  }
}
layer {
  name: "convlstm1_transform_1"
  type: "Convolution"
  bottom: "h_conted_0"
  top: "W_hc_h_0"
  param {
    name: "W_hc"
  }
  convolution_param {
    num_output: 2048
    bias_term: false
    pad: 1
    kernel_size: 3
    stride: 1
    weight_filler {
      type: "xavier"
    }
    engine: CUDNN
    axis: 2
  }
}
layer {
  name: "convlstm1_gate_input_1"
  type: "Eltwise"
  bottom: "W_hc_h_0"
  bottom: "W_xc_x_1"
  top: "gate_input_1"
  eltwise_param {
    operation: SUM
  }
}
layer {
  name: "convlstm1_unit_1"
  type: "ConvolutionLSTMUnit"
  bottom: "c_0"
  bottom: "gate_input_1"
  bottom: "cont_1"
  top: "c_1"
  top: "h_1"
}
layer {
  name: "convlstm1_h_conted_1"
  type: "Scale"
  bottom: "h_1"
  bottom: "cont_2"
  top: "h_conted_1"
  scale_param {
    axis: 0
  }
}
layer {
  name: "convlstm1_transform_2"
  type: "Convolution"
  bottom: "h_conted_1"
  top: "W_hc_h_1"
  param {
    name: "W_hc"
  }
  convolution_param {
    num_output: 2048
    bias_term: false
    pad: 1
    kernel_size: 3
    stride: 1
    weight_filler {
      type: "xavier"
    }
    engine: CUDNN
    axis: 2
  }
}
layer {
  name: "convlstm1_gate_input_2"
  type: "Eltwise"
  bottom: "W_hc_h_1"
  bottom: "W_xc_x_2"
  top: "gate_input_2"
  eltwise_param {
    operation: SUM
  }
}
layer {
  name: "convlstm1_unit_2"
  type: "ConvolutionLSTMUnit"
  bottom: "c_1"
  bottom: "gate_input_2"
  bottom: "cont_2"
  top: "c_2"
  top: "h_2"
}
layer {
  name: "convlstm1_h_conted_2"
  type: "Scale"
  bottom: "h_2"
  bottom: "cont_3"
  top: "h_conted_2"
  scale_param {
    axis: 0
  }
}
layer {
  name: "convlstm1_transform_3"
  type: "Convolution"
  bottom: "h_conted_2"
  top: "W_hc_h_2"
  param {
    name: "W_hc"
  }
  convolution_param {
    num_output: 2048
    bias_term: false
    pad: 1
    kernel_size: 3
    stride: 1
    weight_filler {
      type: "xavier"
    }
    engine: CUDNN
    axis: 2
  }
}
layer {
  name: "convlstm1_gate_input_3"
  type: "Eltwise"
  bottom: "W_hc_h_2"
  bottom: "W_xc_x_3"
  top: "gate_input_3"
  eltwise_param {
    operation: SUM
  }
}
layer {
  name: "convlstm1_unit_3"
  type: "ConvolutionLSTMUnit"
  bottom: "c_2"
  bottom: "gate_input_3"
  bottom: "cont_3"
  top: "c_3"
  top: "h_3"
}
layer {
  name: "convlstm1_h_conted_3"
  type: "Scale"
  bottom: "h_3"
  bottom: "cont_4"
  top: "h_conted_3"
  scale_param {
    axis: 0
  }
}
layer {
  name: "convlstm1_transform_4"
  type: "Convolution"
  bottom: "h_conted_3"
  top: "W_hc_h_3"
  param {
    name: "W_hc"
  }
  convolution_param {
    num_output: 2048
    bias_term: false
    pad: 1
    kernel_size: 3
    stride: 1
    weight_filler {
      type: "xavier"
    }
    engine: CUDNN
    axis: 2
  }
}
layer {
  name: "convlstm1_gate_input_4"
  type: "Eltwise"
  bottom: "W_hc_h_3"
  bottom: "W_xc_x_4"
  top: "gate_input_4"
  eltwise_param {
    operation: SUM
  }
}
layer {
  name: "convlstm1_unit_4"
  type: "ConvolutionLSTMUnit"
  bottom: "c_3"
  bottom: "gate_input_4"
  bottom: "cont_4"
  top: "c_4"
  top: "h_4"
}
layer {
  name: "convlstm1_h_conted_4"
  type: "Scale"
  bottom: "h_4"
  bottom: "cont_5"
  top: "h_conted_4"
  scale_param {
    axis: 0
  }
}
layer {
  name: "convlstm1_transform_5"
  type: "Convolution"
  bottom: "h_conted_4"
  top: "W_hc_h_4"
  param {
    name: "W_hc"
  }
  convolution_param {
    num_output: 2048
    bias_term: false
    pad: 1
    kernel_size: 3
    stride: 1
    weight_filler {
      type: "xavier"
    }
    engine: CUDNN
    axis: 2
  }
}
layer {
  name: "convlstm1_gate_input_5"
  type: "Eltwise"
  bottom: "W_hc_h_4"
  bottom: "W_xc_x_5"
  top: "gate_input_5"
  eltwise_param {
    operation: SUM
  }
}
layer {
  name: "convlstm1_unit_5"
  type: "ConvolutionLSTMUnit"
  bottom: "c_4"
  bottom: "gate_input_5"
  bottom: "cont_5"
  top: "c_5"
  top: "h_5"
}
layer {
  name: "convlstm1_h_conted_5"
  type: "Scale"
  bottom: "h_5"
  bottom: "cont_6"
  top: "h_conted_5"
  scale_param {
    axis: 0
  }
}
layer {
  name: "convlstm1_transform_6"
  type: "Convolution"
  bottom: "h_conted_5"
  top: "W_hc_h_5"
  param {
    name: "W_hc"
  }
  convolution_param {
    num_output: 2048
    bias_term: false
    pad: 1
    kernel_size: 3
    stride: 1
    weight_filler {
      type: "xavier"
    }
    engine: CUDNN
    axis: 2
  }
}
layer {
  name: "convlstm1_gate_input_6"
  type: "Eltwise"
  bottom: "W_hc_h_5"
  bottom: "W_xc_x_6"
  top: "gate_input_6"
  eltwise_param {
    operation: SUM
  }
}
layer {
  name: "convlstm1_unit_6"
  type: "ConvolutionLSTMUnit"
  bottom: "c_5"
  bottom: "gate_input_6"
  bottom: "cont_6"
  top: "c_6"
  top: "h_6"
}
layer {
  name: "convlstm1_h_conted_6"
  type: "Scale"
  bottom: "h_6"
  bottom: "cont_7"
  top: "h_conted_6"
  scale_param {
    axis: 0
  }
}
layer {
  name: "convlstm1_transform_7"
  type: "Convolution"
  bottom: "h_conted_6"
  top: "W_hc_h_6"
  param {
    name: "W_hc"
  }
  convolution_param {
    num_output: 2048
    bias_term: false
    pad: 1
    kernel_size: 3
    stride: 1
    weight_filler {
      type: "xavier"
    }
    engine: CUDNN
    axis: 2
  }
}
layer {
  name: "convlstm1_gate_input_7"
  type: "Eltwise"
  bottom: "W_hc_h_6"
  bottom: "W_xc_x_7"
  top: "gate_input_7"
  eltwise_param {
    operation: SUM
  }
}
layer {
  name: "convlstm1_unit_7"
  type: "ConvolutionLSTMUnit"
  bottom: "c_6"
  bottom: "gate_input_7"
  bottom: "cont_7"
  top: "c_7"
  top: "h_7"
}
layer {
  name: "convlstm1_h_conted_7"
  type: "Scale"
  bottom: "h_7"
  bottom: "cont_8"
  top: "h_conted_7"
  scale_param {
    axis: 0
  }
}
layer {
  name: "convlstm1_transform_8"
  type: "Convolution"
  bottom: "h_conted_7"
  top: "W_hc_h_7"
  param {
    name: "W_hc"
  }
  convolution_param {
    num_output: 2048
    bias_term: false
    pad: 1
    kernel_size: 3
    stride: 1
    weight_filler {
      type: "xavier"
    }
    engine: CUDNN
    axis: 2
  }
}
layer {
  name: "convlstm1_gate_input_8"
  type: "Eltwise"
  bottom: "W_hc_h_7"
  bottom: "W_xc_x_8"
  top: "gate_input_8"
  eltwise_param {
    operation: SUM
  }
}
layer {
  name: "convlstm1_unit_8"
  type: "ConvolutionLSTMUnit"
  bottom: "c_7"
  bottom: "gate_input_8"
  bottom: "cont_8"
  top: "c_8"
  top: "h_8"
}
layer {
  name: "convlstm1_h_conted_8"
  type: "Scale"
  bottom: "h_8"
  bottom: "cont_9"
  top: "h_conted_8"
  scale_param {
    axis: 0
  }
}
layer {
  name: "convlstm1_transform_9"
  type: "Convolution"
  bottom: "h_conted_8"
  top: "W_hc_h_8"
  param {
    name: "W_hc"
  }
  convolution_param {
    num_output: 2048
    bias_term: false
    pad: 1
    kernel_size: 3
    stride: 1
    weight_filler {
      type: "xavier"
    }
    engine: CUDNN
    axis: 2
  }
}
layer {
  name: "convlstm1_gate_input_9"
  type: "Eltwise"
  bottom: "W_hc_h_8"
  bottom: "W_xc_x_9"
  top: "gate_input_9"
  eltwise_param {
    operation: SUM
  }
}
layer {
  name: "convlstm1_unit_9"
  type: "ConvolutionLSTMUnit"
  bottom: "c_8"
  bottom: "gate_input_9"
  bottom: "cont_9"
  top: "c_9"
  top: "h_9"
}
layer {
  name: "convlstm1_h_conted_9"
  type: "Scale"
  bottom: "h_9"
  bottom: "cont_10"
  top: "h_conted_9"
  scale_param {
    axis: 0
  }
}
layer {
  name: "convlstm1_transform_10"
  type: "Convolution"
  bottom: "h_conted_9"
  top: "W_hc_h_9"
  param {
    name: "W_hc"
  }
  convolution_param {
    num_output: 2048
    bias_term: false
    pad: 1
    kernel_size: 3
    stride: 1
    weight_filler {
      type: "xavier"
    }
    engine: CUDNN
    axis: 2
  }
}
layer {
  name: "convlstm1_gate_input_10"
  type: "Eltwise"
  bottom: "W_hc_h_9"
  bottom: "W_xc_x_10"
  top: "gate_input_10"
  eltwise_param {
    operation: SUM
  }
}
layer {
  name: "convlstm1_unit_10"
  type: "ConvolutionLSTMUnit"
  bottom: "c_9"
  bottom: "gate_input_10"
  bottom: "cont_10"
  top: "c_10"
  top: "h_10"
}
layer {
  name: "convlstm1_"
  type: "Split"
  bottom: "c_10"
  top: "c_T"
}
layer {
  name: "convlstm1_h_concat"
  type: "Concat"
  bottom: "h_1"
  bottom: "h_2"
  bottom: "h_3"
  bottom: "h_4"
  bottom: "h_5"
  bottom: "h_6"
  bottom: "h_7"
  bottom: "h_8"
  bottom: "h_9"
  bottom: "h_10"
  top: "h"
  concat_param {
    axis: 0
  }
}
layer {
  name: "h_pseudoloss"
  type: "Reduction"
  bottom: "h"
  top: "h_pseudoloss"
  loss_weight: 1
}
I0418 11:19:51.908383  6357 layer_factory.hpp:77] Creating layer convlstm1_
I0418 11:19:51.908402  6357 net.cpp:101] Creating Layer convlstm1_
I0418 11:19:51.908406  6357 net.cpp:409] convlstm1_ -> x
I0418 11:19:51.908413  6357 net.cpp:409] convlstm1_ -> cont
I0418 11:19:51.908458  6357 net.cpp:151] Setting up convlstm1_
I0418 11:19:51.908463  6357 net.cpp:158] Top shape: 10 8 512 15 15 (9216000)
I0418 11:19:51.908466  6357 net.cpp:158] Top shape: 10 8 (80)
I0418 11:19:51.908468  6357 net.cpp:166] Memory required for data: 36864320
I0418 11:19:51.908479  6357 layer_factory.hpp:77] Creating layer convlstm1_
I0418 11:19:51.908484  6357 net.cpp:101] Creating Layer convlstm1_
I0418 11:19:51.908488  6357 net.cpp:409] convlstm1_ -> c_0
I0418 11:19:51.908493  6357 net.cpp:409] convlstm1_ -> h_0
I0418 11:19:51.908520  6357 net.cpp:151] Setting up convlstm1_
I0418 11:19:51.908524  6357 net.cpp:158] Top shape: 1 8 512 15 15 (921600)
I0418 11:19:51.908527  6357 net.cpp:158] Top shape: 1 8 512 15 15 (921600)
I0418 11:19:51.908529  6357 net.cpp:166] Memory required for data: 44237120
I0418 11:19:51.908531  6357 layer_factory.hpp:77] Creating layer convlstm1_cont_slice
I0418 11:19:51.908537  6357 net.cpp:101] Creating Layer convlstm1_cont_slice
I0418 11:19:51.908540  6357 net.cpp:435] convlstm1_cont_slice <- cont
I0418 11:19:51.908545  6357 net.cpp:409] convlstm1_cont_slice -> cont_1
I0418 11:19:51.908550  6357 net.cpp:409] convlstm1_cont_slice -> cont_2
I0418 11:19:51.908553  6357 net.cpp:409] convlstm1_cont_slice -> cont_3
I0418 11:19:51.908557  6357 net.cpp:409] convlstm1_cont_slice -> cont_4
I0418 11:19:51.908561  6357 net.cpp:409] convlstm1_cont_slice -> cont_5
I0418 11:19:51.908566  6357 net.cpp:409] convlstm1_cont_slice -> cont_6
I0418 11:19:51.908571  6357 net.cpp:409] convlstm1_cont_slice -> cont_7
I0418 11:19:51.908573  6357 net.cpp:409] convlstm1_cont_slice -> cont_8
I0418 11:19:51.908577  6357 net.cpp:409] convlstm1_cont_slice -> cont_9
I0418 11:19:51.908581  6357 net.cpp:409] convlstm1_cont_slice -> cont_10
I0418 11:19:51.908674  6357 net.cpp:151] Setting up convlstm1_cont_slice
I0418 11:19:51.908679  6357 net.cpp:158] Top shape: 1 8 (8)
I0418 11:19:51.908680  6357 net.cpp:158] Top shape: 1 8 (8)
I0418 11:19:51.908684  6357 net.cpp:158] Top shape: 1 8 (8)
I0418 11:19:51.908685  6357 net.cpp:158] Top shape: 1 8 (8)
I0418 11:19:51.908687  6357 net.cpp:158] Top shape: 1 8 (8)
I0418 11:19:51.908690  6357 net.cpp:158] Top shape: 1 8 (8)
I0418 11:19:51.908692  6357 net.cpp:158] Top shape: 1 8 (8)
I0418 11:19:51.908694  6357 net.cpp:158] Top shape: 1 8 (8)
I0418 11:19:51.908696  6357 net.cpp:158] Top shape: 1 8 (8)
I0418 11:19:51.908699  6357 net.cpp:158] Top shape: 1 8 (8)
I0418 11:19:51.908700  6357 net.cpp:166] Memory required for data: 44237440
I0418 11:19:51.908702  6357 layer_factory.hpp:77] Creating layer cont_1_convlstm1_cont_slice_0_split
I0418 11:19:51.908706  6357 net.cpp:101] Creating Layer cont_1_convlstm1_cont_slice_0_split
I0418 11:19:51.908710  6357 net.cpp:435] cont_1_convlstm1_cont_slice_0_split <- cont_1
I0418 11:19:51.908713  6357 net.cpp:409] cont_1_convlstm1_cont_slice_0_split -> cont_1_convlstm1_cont_slice_0_split_0
I0418 11:19:51.908718  6357 net.cpp:409] cont_1_convlstm1_cont_slice_0_split -> cont_1_convlstm1_cont_slice_0_split_1
I0418 11:19:51.908745  6357 net.cpp:151] Setting up cont_1_convlstm1_cont_slice_0_split
I0418 11:19:51.908747  6357 net.cpp:158] Top shape: 1 8 (8)
I0418 11:19:51.908751  6357 net.cpp:158] Top shape: 1 8 (8)
I0418 11:19:51.908751  6357 net.cpp:166] Memory required for data: 44237504
I0418 11:19:51.908753  6357 layer_factory.hpp:77] Creating layer cont_2_convlstm1_cont_slice_1_split
I0418 11:19:51.908757  6357 net.cpp:101] Creating Layer cont_2_convlstm1_cont_slice_1_split
I0418 11:19:51.908759  6357 net.cpp:435] cont_2_convlstm1_cont_slice_1_split <- cont_2
I0418 11:19:51.908762  6357 net.cpp:409] cont_2_convlstm1_cont_slice_1_split -> cont_2_convlstm1_cont_slice_1_split_0
I0418 11:19:51.908768  6357 net.cpp:409] cont_2_convlstm1_cont_slice_1_split -> cont_2_convlstm1_cont_slice_1_split_1
I0418 11:19:51.908792  6357 net.cpp:151] Setting up cont_2_convlstm1_cont_slice_1_split
I0418 11:19:51.908794  6357 net.cpp:158] Top shape: 1 8 (8)
I0418 11:19:51.908797  6357 net.cpp:158] Top shape: 1 8 (8)
I0418 11:19:51.908798  6357 net.cpp:166] Memory required for data: 44237568
I0418 11:19:51.908800  6357 layer_factory.hpp:77] Creating layer cont_3_convlstm1_cont_slice_2_split
I0418 11:19:51.908803  6357 net.cpp:101] Creating Layer cont_3_convlstm1_cont_slice_2_split
I0418 11:19:51.908813  6357 net.cpp:435] cont_3_convlstm1_cont_slice_2_split <- cont_3
I0418 11:19:51.908818  6357 net.cpp:409] cont_3_convlstm1_cont_slice_2_split -> cont_3_convlstm1_cont_slice_2_split_0
I0418 11:19:51.908823  6357 net.cpp:409] cont_3_convlstm1_cont_slice_2_split -> cont_3_convlstm1_cont_slice_2_split_1
I0418 11:19:51.908846  6357 net.cpp:151] Setting up cont_3_convlstm1_cont_slice_2_split
I0418 11:19:51.908850  6357 net.cpp:158] Top shape: 1 8 (8)
I0418 11:19:51.908852  6357 net.cpp:158] Top shape: 1 8 (8)
I0418 11:19:51.908854  6357 net.cpp:166] Memory required for data: 44237632
I0418 11:19:51.908855  6357 layer_factory.hpp:77] Creating layer cont_4_convlstm1_cont_slice_3_split
I0418 11:19:51.908859  6357 net.cpp:101] Creating Layer cont_4_convlstm1_cont_slice_3_split
I0418 11:19:51.908861  6357 net.cpp:435] cont_4_convlstm1_cont_slice_3_split <- cont_4
I0418 11:19:51.908864  6357 net.cpp:409] cont_4_convlstm1_cont_slice_3_split -> cont_4_convlstm1_cont_slice_3_split_0
I0418 11:19:51.908869  6357 net.cpp:409] cont_4_convlstm1_cont_slice_3_split -> cont_4_convlstm1_cont_slice_3_split_1
I0418 11:19:51.908891  6357 net.cpp:151] Setting up cont_4_convlstm1_cont_slice_3_split
I0418 11:19:51.908895  6357 net.cpp:158] Top shape: 1 8 (8)
I0418 11:19:51.908897  6357 net.cpp:158] Top shape: 1 8 (8)
I0418 11:19:51.908898  6357 net.cpp:166] Memory required for data: 44237696
I0418 11:19:51.908900  6357 layer_factory.hpp:77] Creating layer cont_5_convlstm1_cont_slice_4_split
I0418 11:19:51.908903  6357 net.cpp:101] Creating Layer cont_5_convlstm1_cont_slice_4_split
I0418 11:19:51.908905  6357 net.cpp:435] cont_5_convlstm1_cont_slice_4_split <- cont_5
I0418 11:19:51.908910  6357 net.cpp:409] cont_5_convlstm1_cont_slice_4_split -> cont_5_convlstm1_cont_slice_4_split_0
I0418 11:19:51.908913  6357 net.cpp:409] cont_5_convlstm1_cont_slice_4_split -> cont_5_convlstm1_cont_slice_4_split_1
I0418 11:19:51.908936  6357 net.cpp:151] Setting up cont_5_convlstm1_cont_slice_4_split
I0418 11:19:51.908939  6357 net.cpp:158] Top shape: 1 8 (8)
I0418 11:19:51.908941  6357 net.cpp:158] Top shape: 1 8 (8)
I0418 11:19:51.908943  6357 net.cpp:166] Memory required for data: 44237760
I0418 11:19:51.908946  6357 layer_factory.hpp:77] Creating layer cont_6_convlstm1_cont_slice_5_split
I0418 11:19:51.908949  6357 net.cpp:101] Creating Layer cont_6_convlstm1_cont_slice_5_split
I0418 11:19:51.908951  6357 net.cpp:435] cont_6_convlstm1_cont_slice_5_split <- cont_6
I0418 11:19:51.908954  6357 net.cpp:409] cont_6_convlstm1_cont_slice_5_split -> cont_6_convlstm1_cont_slice_5_split_0
I0418 11:19:51.908958  6357 net.cpp:409] cont_6_convlstm1_cont_slice_5_split -> cont_6_convlstm1_cont_slice_5_split_1
I0418 11:19:51.908983  6357 net.cpp:151] Setting up cont_6_convlstm1_cont_slice_5_split
I0418 11:19:51.908987  6357 net.cpp:158] Top shape: 1 8 (8)
I0418 11:19:51.908988  6357 net.cpp:158] Top shape: 1 8 (8)
I0418 11:19:51.908990  6357 net.cpp:166] Memory required for data: 44237824
I0418 11:19:51.908993  6357 layer_factory.hpp:77] Creating layer cont_7_convlstm1_cont_slice_6_split
I0418 11:19:51.908996  6357 net.cpp:101] Creating Layer cont_7_convlstm1_cont_slice_6_split
I0418 11:19:51.908998  6357 net.cpp:435] cont_7_convlstm1_cont_slice_6_split <- cont_7
I0418 11:19:51.909003  6357 net.cpp:409] cont_7_convlstm1_cont_slice_6_split -> cont_7_convlstm1_cont_slice_6_split_0
I0418 11:19:51.909006  6357 net.cpp:409] cont_7_convlstm1_cont_slice_6_split -> cont_7_convlstm1_cont_slice_6_split_1
I0418 11:19:51.909029  6357 net.cpp:151] Setting up cont_7_convlstm1_cont_slice_6_split
I0418 11:19:51.909034  6357 net.cpp:158] Top shape: 1 8 (8)
I0418 11:19:51.909035  6357 net.cpp:158] Top shape: 1 8 (8)
I0418 11:19:51.909036  6357 net.cpp:166] Memory required for data: 44237888
I0418 11:19:51.909039  6357 layer_factory.hpp:77] Creating layer cont_8_convlstm1_cont_slice_7_split
I0418 11:19:51.909042  6357 net.cpp:101] Creating Layer cont_8_convlstm1_cont_slice_7_split
I0418 11:19:51.909044  6357 net.cpp:435] cont_8_convlstm1_cont_slice_7_split <- cont_8
I0418 11:19:51.909054  6357 net.cpp:409] cont_8_convlstm1_cont_slice_7_split -> cont_8_convlstm1_cont_slice_7_split_0
I0418 11:19:51.909060  6357 net.cpp:409] cont_8_convlstm1_cont_slice_7_split -> cont_8_convlstm1_cont_slice_7_split_1
I0418 11:19:51.909085  6357 net.cpp:151] Setting up cont_8_convlstm1_cont_slice_7_split
I0418 11:19:51.909087  6357 net.cpp:158] Top shape: 1 8 (8)
I0418 11:19:51.909090  6357 net.cpp:158] Top shape: 1 8 (8)
I0418 11:19:51.909091  6357 net.cpp:166] Memory required for data: 44237952
I0418 11:19:51.909093  6357 layer_factory.hpp:77] Creating layer cont_9_convlstm1_cont_slice_8_split
I0418 11:19:51.909097  6357 net.cpp:101] Creating Layer cont_9_convlstm1_cont_slice_8_split
I0418 11:19:51.909099  6357 net.cpp:435] cont_9_convlstm1_cont_slice_8_split <- cont_9
I0418 11:19:51.909104  6357 net.cpp:409] cont_9_convlstm1_cont_slice_8_split -> cont_9_convlstm1_cont_slice_8_split_0
I0418 11:19:51.909108  6357 net.cpp:409] cont_9_convlstm1_cont_slice_8_split -> cont_9_convlstm1_cont_slice_8_split_1
I0418 11:19:51.909131  6357 net.cpp:151] Setting up cont_9_convlstm1_cont_slice_8_split
I0418 11:19:51.909133  6357 net.cpp:158] Top shape: 1 8 (8)
I0418 11:19:51.909137  6357 net.cpp:158] Top shape: 1 8 (8)
I0418 11:19:51.909137  6357 net.cpp:166] Memory required for data: 44238016
I0418 11:19:51.909139  6357 layer_factory.hpp:77] Creating layer cont_10_convlstm1_cont_slice_9_split
I0418 11:19:51.909142  6357 net.cpp:101] Creating Layer cont_10_convlstm1_cont_slice_9_split
I0418 11:19:51.909145  6357 net.cpp:435] cont_10_convlstm1_cont_slice_9_split <- cont_10
I0418 11:19:51.909149  6357 net.cpp:409] cont_10_convlstm1_cont_slice_9_split -> cont_10_convlstm1_cont_slice_9_split_0
I0418 11:19:51.909157  6357 net.cpp:409] cont_10_convlstm1_cont_slice_9_split -> cont_10_convlstm1_cont_slice_9_split_1
I0418 11:19:51.909181  6357 net.cpp:151] Setting up cont_10_convlstm1_cont_slice_9_split
I0418 11:19:51.909185  6357 net.cpp:158] Top shape: 1 8 (8)
I0418 11:19:51.909188  6357 net.cpp:158] Top shape: 1 8 (8)
I0418 11:19:51.909189  6357 net.cpp:166] Memory required for data: 44238080
I0418 11:19:51.909191  6357 layer_factory.hpp:77] Creating layer convlstm1_x_transform
I0418 11:19:51.909198  6357 net.cpp:101] Creating Layer convlstm1_x_transform
I0418 11:19:51.909200  6357 net.cpp:435] convlstm1_x_transform <- x
I0418 11:19:51.909205  6357 net.cpp:409] convlstm1_x_transform -> W_xc_x
I0418 11:19:51.971021  6357 net.cpp:151] Setting up convlstm1_x_transform
I0418 11:19:51.971046  6357 net.cpp:158] Top shape: 10 8 2048 15 15 (36864000)
I0418 11:19:51.971048  6357 net.cpp:166] Memory required for data: 191694080
I0418 11:19:51.971065  6357 layer_factory.hpp:77] Creating layer convlstm1_W_xc_x_slice
I0418 11:19:51.971076  6357 net.cpp:101] Creating Layer convlstm1_W_xc_x_slice
I0418 11:19:51.971081  6357 net.cpp:435] convlstm1_W_xc_x_slice <- W_xc_x
I0418 11:19:51.971086  6357 net.cpp:409] convlstm1_W_xc_x_slice -> W_xc_x_1
I0418 11:19:51.971096  6357 net.cpp:409] convlstm1_W_xc_x_slice -> W_xc_x_2
I0418 11:19:51.971099  6357 net.cpp:409] convlstm1_W_xc_x_slice -> W_xc_x_3
I0418 11:19:51.971104  6357 net.cpp:409] convlstm1_W_xc_x_slice -> W_xc_x_4
I0418 11:19:51.971108  6357 net.cpp:409] convlstm1_W_xc_x_slice -> W_xc_x_5
I0418 11:19:51.971113  6357 net.cpp:409] convlstm1_W_xc_x_slice -> W_xc_x_6
I0418 11:19:51.971117  6357 net.cpp:409] convlstm1_W_xc_x_slice -> W_xc_x_7
I0418 11:19:51.971120  6357 net.cpp:409] convlstm1_W_xc_x_slice -> W_xc_x_8
I0418 11:19:51.971124  6357 net.cpp:409] convlstm1_W_xc_x_slice -> W_xc_x_9
I0418 11:19:51.971128  6357 net.cpp:409] convlstm1_W_xc_x_slice -> W_xc_x_10
I0418 11:19:51.971232  6357 net.cpp:151] Setting up convlstm1_W_xc_x_slice
I0418 11:19:51.971240  6357 net.cpp:158] Top shape: 1 8 2048 15 15 (3686400)
I0418 11:19:51.971242  6357 net.cpp:158] Top shape: 1 8 2048 15 15 (3686400)
I0418 11:19:51.971246  6357 net.cpp:158] Top shape: 1 8 2048 15 15 (3686400)
I0418 11:19:51.971248  6357 net.cpp:158] Top shape: 1 8 2048 15 15 (3686400)
I0418 11:19:51.971251  6357 net.cpp:158] Top shape: 1 8 2048 15 15 (3686400)
I0418 11:19:51.971272  6357 net.cpp:158] Top shape: 1 8 2048 15 15 (3686400)
I0418 11:19:51.971274  6357 net.cpp:158] Top shape: 1 8 2048 15 15 (3686400)
I0418 11:19:51.971277  6357 net.cpp:158] Top shape: 1 8 2048 15 15 (3686400)
I0418 11:19:51.971279  6357 net.cpp:158] Top shape: 1 8 2048 15 15 (3686400)
I0418 11:19:51.971282  6357 net.cpp:158] Top shape: 1 8 2048 15 15 (3686400)
I0418 11:19:51.971283  6357 net.cpp:166] Memory required for data: 339150080
I0418 11:19:51.971287  6357 layer_factory.hpp:77] Creating layer convlstm1_h_conted_0
I0418 11:19:51.971294  6357 net.cpp:101] Creating Layer convlstm1_h_conted_0
I0418 11:19:51.971297  6357 net.cpp:435] convlstm1_h_conted_0 <- h_0
I0418 11:19:51.971302  6357 net.cpp:435] convlstm1_h_conted_0 <- cont_1_convlstm1_cont_slice_0_split_0
I0418 11:19:51.971307  6357 net.cpp:409] convlstm1_h_conted_0 -> h_conted_0
I0418 11:19:51.972730  6357 net.cpp:151] Setting up convlstm1_h_conted_0
I0418 11:19:51.972743  6357 net.cpp:158] Top shape: 1 8 512 15 15 (921600)
I0418 11:19:51.972745  6357 net.cpp:166] Memory required for data: 342836480
I0418 11:19:51.972748  6357 layer_factory.hpp:77] Creating layer convlstm1_transform_1
I0418 11:19:51.972761  6357 net.cpp:101] Creating Layer convlstm1_transform_1
I0418 11:19:51.972764  6357 net.cpp:435] convlstm1_transform_1 <- h_conted_0
I0418 11:19:51.972769  6357 net.cpp:409] convlstm1_transform_1 -> W_hc_h_0
I0418 11:19:52.034363  6357 net.cpp:151] Setting up convlstm1_transform_1
I0418 11:19:52.034396  6357 net.cpp:158] Top shape: 1 8 2048 15 15 (3686400)
I0418 11:19:52.034399  6357 net.cpp:166] Memory required for data: 357582080
I0418 11:19:52.034415  6357 layer_factory.hpp:77] Creating layer convlstm1_gate_input_1
I0418 11:19:52.034428  6357 net.cpp:101] Creating Layer convlstm1_gate_input_1
I0418 11:19:52.034432  6357 net.cpp:435] convlstm1_gate_input_1 <- W_hc_h_0
I0418 11:19:52.034437  6357 net.cpp:435] convlstm1_gate_input_1 <- W_xc_x_1
I0418 11:19:52.034443  6357 net.cpp:409] convlstm1_gate_input_1 -> gate_input_1
I0418 11:19:52.034474  6357 net.cpp:151] Setting up convlstm1_gate_input_1
I0418 11:19:52.034481  6357 net.cpp:158] Top shape: 1 8 2048 15 15 (3686400)
I0418 11:19:52.034482  6357 net.cpp:166] Memory required for data: 372327680
I0418 11:19:52.034484  6357 layer_factory.hpp:77] Creating layer convlstm1_unit_1
I0418 11:19:52.034489  6357 net.cpp:101] Creating Layer convlstm1_unit_1
I0418 11:19:52.034493  6357 net.cpp:435] convlstm1_unit_1 <- c_0
I0418 11:19:52.034497  6357 net.cpp:435] convlstm1_unit_1 <- gate_input_1
I0418 11:19:52.034499  6357 net.cpp:435] convlstm1_unit_1 <- cont_1_convlstm1_cont_slice_0_split_1
I0418 11:19:52.034504  6357 net.cpp:409] convlstm1_unit_1 -> c_1
I0418 11:19:52.034509  6357 net.cpp:409] convlstm1_unit_1 -> h_1
I0418 11:19:52.034545  6357 net.cpp:151] Setting up convlstm1_unit_1
I0418 11:19:52.034549  6357 net.cpp:158] Top shape: 1 8 512 15 15 (921600)
I0418 11:19:52.034553  6357 net.cpp:158] Top shape: 1 8 512 15 15 (921600)
I0418 11:19:52.034554  6357 net.cpp:166] Memory required for data: 379700480
I0418 11:19:52.034556  6357 layer_factory.hpp:77] Creating layer h_1_convlstm1_unit_1_1_split
I0418 11:19:52.034561  6357 net.cpp:101] Creating Layer h_1_convlstm1_unit_1_1_split
I0418 11:19:52.034564  6357 net.cpp:435] h_1_convlstm1_unit_1_1_split <- h_1
I0418 11:19:52.034569  6357 net.cpp:409] h_1_convlstm1_unit_1_1_split -> h_1_convlstm1_unit_1_1_split_0
I0418 11:19:52.034574  6357 net.cpp:409] h_1_convlstm1_unit_1_1_split -> h_1_convlstm1_unit_1_1_split_1
I0418 11:19:52.034600  6357 net.cpp:151] Setting up h_1_convlstm1_unit_1_1_split
I0418 11:19:52.034603  6357 net.cpp:158] Top shape: 1 8 512 15 15 (921600)
I0418 11:19:52.034606  6357 net.cpp:158] Top shape: 1 8 512 15 15 (921600)
I0418 11:19:52.034608  6357 net.cpp:166] Memory required for data: 387073280
I0418 11:19:52.034610  6357 layer_factory.hpp:77] Creating layer convlstm1_h_conted_1
I0418 11:19:52.034616  6357 net.cpp:101] Creating Layer convlstm1_h_conted_1
I0418 11:19:52.034618  6357 net.cpp:435] convlstm1_h_conted_1 <- h_1_convlstm1_unit_1_1_split_0
I0418 11:19:52.034641  6357 net.cpp:435] convlstm1_h_conted_1 <- cont_2_convlstm1_cont_slice_1_split_0
I0418 11:19:52.034646  6357 net.cpp:409] convlstm1_h_conted_1 -> h_conted_1
I0418 11:19:52.034818  6357 net.cpp:151] Setting up convlstm1_h_conted_1
I0418 11:19:52.034827  6357 net.cpp:158] Top shape: 1 8 512 15 15 (921600)
I0418 11:19:52.034829  6357 net.cpp:166] Memory required for data: 390759680
I0418 11:19:52.034832  6357 layer_factory.hpp:77] Creating layer convlstm1_transform_2
I0418 11:19:52.034842  6357 net.cpp:101] Creating Layer convlstm1_transform_2
I0418 11:19:52.034844  6357 net.cpp:435] convlstm1_transform_2 <- h_conted_1
I0418 11:19:52.034849  6357 net.cpp:409] convlstm1_transform_2 -> W_hc_h_1
I0418 11:19:52.096194  6357 net.cpp:151] Setting up convlstm1_transform_2
I0418 11:19:52.096225  6357 net.cpp:158] Top shape: 1 8 2048 15 15 (3686400)
I0418 11:19:52.096226  6357 net.cpp:166] Memory required for data: 405505280
I0418 11:19:52.096235  6357 net.cpp:494] Sharing parameters 'W_hc' owned by layer 'convlstm1_transform_1', param index 0
I0418 11:19:52.096240  6357 layer_factory.hpp:77] Creating layer convlstm1_gate_input_2
I0418 11:19:52.096253  6357 net.cpp:101] Creating Layer convlstm1_gate_input_2
I0418 11:19:52.096257  6357 net.cpp:435] convlstm1_gate_input_2 <- W_hc_h_1
I0418 11:19:52.096264  6357 net.cpp:435] convlstm1_gate_input_2 <- W_xc_x_2
I0418 11:19:52.096269  6357 net.cpp:409] convlstm1_gate_input_2 -> gate_input_2
I0418 11:19:52.096302  6357 net.cpp:151] Setting up convlstm1_gate_input_2
I0418 11:19:52.096305  6357 net.cpp:158] Top shape: 1 8 2048 15 15 (3686400)
I0418 11:19:52.096307  6357 net.cpp:166] Memory required for data: 420250880
I0418 11:19:52.096310  6357 layer_factory.hpp:77] Creating layer convlstm1_unit_2
I0418 11:19:52.096315  6357 net.cpp:101] Creating Layer convlstm1_unit_2
I0418 11:19:52.096318  6357 net.cpp:435] convlstm1_unit_2 <- c_1
I0418 11:19:52.096321  6357 net.cpp:435] convlstm1_unit_2 <- gate_input_2
I0418 11:19:52.096325  6357 net.cpp:435] convlstm1_unit_2 <- cont_2_convlstm1_cont_slice_1_split_1
I0418 11:19:52.096330  6357 net.cpp:409] convlstm1_unit_2 -> c_2
I0418 11:19:52.096336  6357 net.cpp:409] convlstm1_unit_2 -> h_2
I0418 11:19:52.096372  6357 net.cpp:151] Setting up convlstm1_unit_2
I0418 11:19:52.096376  6357 net.cpp:158] Top shape: 1 8 512 15 15 (921600)
I0418 11:19:52.096379  6357 net.cpp:158] Top shape: 1 8 512 15 15 (921600)
I0418 11:19:52.096381  6357 net.cpp:166] Memory required for data: 427623680
I0418 11:19:52.096384  6357 layer_factory.hpp:77] Creating layer h_2_convlstm1_unit_2_1_split
I0418 11:19:52.096388  6357 net.cpp:101] Creating Layer h_2_convlstm1_unit_2_1_split
I0418 11:19:52.096391  6357 net.cpp:435] h_2_convlstm1_unit_2_1_split <- h_2
I0418 11:19:52.096395  6357 net.cpp:409] h_2_convlstm1_unit_2_1_split -> h_2_convlstm1_unit_2_1_split_0
I0418 11:19:52.096400  6357 net.cpp:409] h_2_convlstm1_unit_2_1_split -> h_2_convlstm1_unit_2_1_split_1
I0418 11:19:52.096426  6357 net.cpp:151] Setting up h_2_convlstm1_unit_2_1_split
I0418 11:19:52.096429  6357 net.cpp:158] Top shape: 1 8 512 15 15 (921600)
I0418 11:19:52.096431  6357 net.cpp:158] Top shape: 1 8 512 15 15 (921600)
I0418 11:19:52.096433  6357 net.cpp:166] Memory required for data: 434996480
I0418 11:19:52.096436  6357 layer_factory.hpp:77] Creating layer convlstm1_h_conted_2
I0418 11:19:52.096441  6357 net.cpp:101] Creating Layer convlstm1_h_conted_2
I0418 11:19:52.096443  6357 net.cpp:435] convlstm1_h_conted_2 <- h_2_convlstm1_unit_2_1_split_0
I0418 11:19:52.096446  6357 net.cpp:435] convlstm1_h_conted_2 <- cont_3_convlstm1_cont_slice_2_split_0
I0418 11:19:52.096451  6357 net.cpp:409] convlstm1_h_conted_2 -> h_conted_2
I0418 11:19:52.097152  6357 net.cpp:151] Setting up convlstm1_h_conted_2
I0418 11:19:52.097163  6357 net.cpp:158] Top shape: 1 8 512 15 15 (921600)
I0418 11:19:52.097165  6357 net.cpp:166] Memory required for data: 438682880
I0418 11:19:52.097167  6357 layer_factory.hpp:77] Creating layer convlstm1_transform_3
I0418 11:19:52.097188  6357 net.cpp:101] Creating Layer convlstm1_transform_3
I0418 11:19:52.097210  6357 net.cpp:435] convlstm1_transform_3 <- h_conted_2
I0418 11:19:52.097216  6357 net.cpp:409] convlstm1_transform_3 -> W_hc_h_2
I0418 11:19:52.156185  6357 net.cpp:151] Setting up convlstm1_transform_3
I0418 11:19:52.156226  6357 net.cpp:158] Top shape: 1 8 2048 15 15 (3686400)
I0418 11:19:52.156229  6357 net.cpp:166] Memory required for data: 453428480
I0418 11:19:52.156240  6357 net.cpp:494] Sharing parameters 'W_hc' owned by layer 'convlstm1_transform_1', param index 0
I0418 11:19:52.156246  6357 layer_factory.hpp:77] Creating layer convlstm1_gate_input_3
I0418 11:19:52.156258  6357 net.cpp:101] Creating Layer convlstm1_gate_input_3
I0418 11:19:52.156261  6357 net.cpp:435] convlstm1_gate_input_3 <- W_hc_h_2
I0418 11:19:52.156267  6357 net.cpp:435] convlstm1_gate_input_3 <- W_xc_x_3
I0418 11:19:52.156272  6357 net.cpp:409] convlstm1_gate_input_3 -> gate_input_3
I0418 11:19:52.156301  6357 net.cpp:151] Setting up convlstm1_gate_input_3
I0418 11:19:52.156306  6357 net.cpp:158] Top shape: 1 8 2048 15 15 (3686400)
I0418 11:19:52.156307  6357 net.cpp:166] Memory required for data: 468174080
I0418 11:19:52.156309  6357 layer_factory.hpp:77] Creating layer convlstm1_unit_3
I0418 11:19:52.156316  6357 net.cpp:101] Creating Layer convlstm1_unit_3
I0418 11:19:52.156317  6357 net.cpp:435] convlstm1_unit_3 <- c_2
I0418 11:19:52.156321  6357 net.cpp:435] convlstm1_unit_3 <- gate_input_3
I0418 11:19:52.156323  6357 net.cpp:435] convlstm1_unit_3 <- cont_3_convlstm1_cont_slice_2_split_1
I0418 11:19:52.156328  6357 net.cpp:409] convlstm1_unit_3 -> c_3
I0418 11:19:52.156332  6357 net.cpp:409] convlstm1_unit_3 -> h_3
I0418 11:19:52.156366  6357 net.cpp:151] Setting up convlstm1_unit_3
I0418 11:19:52.156370  6357 net.cpp:158] Top shape: 1 8 512 15 15 (921600)
I0418 11:19:52.156373  6357 net.cpp:158] Top shape: 1 8 512 15 15 (921600)
I0418 11:19:52.156374  6357 net.cpp:166] Memory required for data: 475546880
I0418 11:19:52.156376  6357 layer_factory.hpp:77] Creating layer h_3_convlstm1_unit_3_1_split
I0418 11:19:52.156380  6357 net.cpp:101] Creating Layer h_3_convlstm1_unit_3_1_split
I0418 11:19:52.156383  6357 net.cpp:435] h_3_convlstm1_unit_3_1_split <- h_3
I0418 11:19:52.156386  6357 net.cpp:409] h_3_convlstm1_unit_3_1_split -> h_3_convlstm1_unit_3_1_split_0
I0418 11:19:52.156399  6357 net.cpp:409] h_3_convlstm1_unit_3_1_split -> h_3_convlstm1_unit_3_1_split_1
I0418 11:19:52.156424  6357 net.cpp:151] Setting up h_3_convlstm1_unit_3_1_split
I0418 11:19:52.156430  6357 net.cpp:158] Top shape: 1 8 512 15 15 (921600)
I0418 11:19:52.156431  6357 net.cpp:158] Top shape: 1 8 512 15 15 (921600)
I0418 11:19:52.156433  6357 net.cpp:166] Memory required for data: 482919680
I0418 11:19:52.156435  6357 layer_factory.hpp:77] Creating layer convlstm1_h_conted_3
I0418 11:19:52.156440  6357 net.cpp:101] Creating Layer convlstm1_h_conted_3
I0418 11:19:52.156442  6357 net.cpp:435] convlstm1_h_conted_3 <- h_3_convlstm1_unit_3_1_split_0
I0418 11:19:52.156445  6357 net.cpp:435] convlstm1_h_conted_3 <- cont_4_convlstm1_cont_slice_3_split_0
I0418 11:19:52.156450  6357 net.cpp:409] convlstm1_h_conted_3 -> h_conted_3
I0418 11:19:52.156597  6357 net.cpp:151] Setting up convlstm1_h_conted_3
I0418 11:19:52.156605  6357 net.cpp:158] Top shape: 1 8 512 15 15 (921600)
I0418 11:19:52.156606  6357 net.cpp:166] Memory required for data: 486606080
I0418 11:19:52.156608  6357 layer_factory.hpp:77] Creating layer convlstm1_transform_4
I0418 11:19:52.156617  6357 net.cpp:101] Creating Layer convlstm1_transform_4
I0418 11:19:52.156620  6357 net.cpp:435] convlstm1_transform_4 <- h_conted_3
I0418 11:19:52.156623  6357 net.cpp:409] convlstm1_transform_4 -> W_hc_h_3
I0418 11:19:52.214821  6357 net.cpp:151] Setting up convlstm1_transform_4
I0418 11:19:52.214857  6357 net.cpp:158] Top shape: 1 8 2048 15 15 (3686400)
I0418 11:19:52.214860  6357 net.cpp:166] Memory required for data: 501351680
I0418 11:19:52.214866  6357 net.cpp:494] Sharing parameters 'W_hc' owned by layer 'convlstm1_transform_1', param index 0
I0418 11:19:52.214892  6357 layer_factory.hpp:77] Creating layer convlstm1_gate_input_4
I0418 11:19:52.214911  6357 net.cpp:101] Creating Layer convlstm1_gate_input_4
I0418 11:19:52.214915  6357 net.cpp:435] convlstm1_gate_input_4 <- W_hc_h_3
I0418 11:19:52.214921  6357 net.cpp:435] convlstm1_gate_input_4 <- W_xc_x_4
I0418 11:19:52.214926  6357 net.cpp:409] convlstm1_gate_input_4 -> gate_input_4
I0418 11:19:52.214954  6357 net.cpp:151] Setting up convlstm1_gate_input_4
I0418 11:19:52.214958  6357 net.cpp:158] Top shape: 1 8 2048 15 15 (3686400)
I0418 11:19:52.214960  6357 net.cpp:166] Memory required for data: 516097280
I0418 11:19:52.214962  6357 layer_factory.hpp:77] Creating layer convlstm1_unit_4
I0418 11:19:52.214967  6357 net.cpp:101] Creating Layer convlstm1_unit_4
I0418 11:19:52.214969  6357 net.cpp:435] convlstm1_unit_4 <- c_3
I0418 11:19:52.214972  6357 net.cpp:435] convlstm1_unit_4 <- gate_input_4
I0418 11:19:52.214975  6357 net.cpp:435] convlstm1_unit_4 <- cont_4_convlstm1_cont_slice_3_split_1
I0418 11:19:52.214979  6357 net.cpp:409] convlstm1_unit_4 -> c_4
I0418 11:19:52.214984  6357 net.cpp:409] convlstm1_unit_4 -> h_4
I0418 11:19:52.215019  6357 net.cpp:151] Setting up convlstm1_unit_4
I0418 11:19:52.215023  6357 net.cpp:158] Top shape: 1 8 512 15 15 (921600)
I0418 11:19:52.215025  6357 net.cpp:158] Top shape: 1 8 512 15 15 (921600)
I0418 11:19:52.215028  6357 net.cpp:166] Memory required for data: 523470080
I0418 11:19:52.215029  6357 layer_factory.hpp:77] Creating layer h_4_convlstm1_unit_4_1_split
I0418 11:19:52.215034  6357 net.cpp:101] Creating Layer h_4_convlstm1_unit_4_1_split
I0418 11:19:52.215035  6357 net.cpp:435] h_4_convlstm1_unit_4_1_split <- h_4
I0418 11:19:52.215039  6357 net.cpp:409] h_4_convlstm1_unit_4_1_split -> h_4_convlstm1_unit_4_1_split_0
I0418 11:19:52.215044  6357 net.cpp:409] h_4_convlstm1_unit_4_1_split -> h_4_convlstm1_unit_4_1_split_1
I0418 11:19:52.215068  6357 net.cpp:151] Setting up h_4_convlstm1_unit_4_1_split
I0418 11:19:52.215071  6357 net.cpp:158] Top shape: 1 8 512 15 15 (921600)
I0418 11:19:52.215073  6357 net.cpp:158] Top shape: 1 8 512 15 15 (921600)
I0418 11:19:52.215075  6357 net.cpp:166] Memory required for data: 530842880
I0418 11:19:52.215077  6357 layer_factory.hpp:77] Creating layer convlstm1_h_conted_4
I0418 11:19:52.215082  6357 net.cpp:101] Creating Layer convlstm1_h_conted_4
I0418 11:19:52.215085  6357 net.cpp:435] convlstm1_h_conted_4 <- h_4_convlstm1_unit_4_1_split_0
I0418 11:19:52.215088  6357 net.cpp:435] convlstm1_h_conted_4 <- cont_5_convlstm1_cont_slice_4_split_0
I0418 11:19:52.215092  6357 net.cpp:409] convlstm1_h_conted_4 -> h_conted_4
I0418 11:19:52.216122  6357 net.cpp:151] Setting up convlstm1_h_conted_4
I0418 11:19:52.216132  6357 net.cpp:158] Top shape: 1 8 512 15 15 (921600)
I0418 11:19:52.216135  6357 net.cpp:166] Memory required for data: 534529280
I0418 11:19:52.216136  6357 layer_factory.hpp:77] Creating layer convlstm1_transform_5
I0418 11:19:52.216147  6357 net.cpp:101] Creating Layer convlstm1_transform_5
I0418 11:19:52.216150  6357 net.cpp:435] convlstm1_transform_5 <- h_conted_4
I0418 11:19:52.216154  6357 net.cpp:409] convlstm1_transform_5 -> W_hc_h_4
I0418 11:19:52.272862  6357 net.cpp:151] Setting up convlstm1_transform_5
I0418 11:19:52.272891  6357 net.cpp:158] Top shape: 1 8 2048 15 15 (3686400)
I0418 11:19:52.272892  6357 net.cpp:166] Memory required for data: 549274880
I0418 11:19:52.272898  6357 net.cpp:494] Sharing parameters 'W_hc' owned by layer 'convlstm1_transform_1', param index 0
I0418 11:19:52.272903  6357 layer_factory.hpp:77] Creating layer convlstm1_gate_input_5
I0418 11:19:52.272915  6357 net.cpp:101] Creating Layer convlstm1_gate_input_5
I0418 11:19:52.272918  6357 net.cpp:435] convlstm1_gate_input_5 <- W_hc_h_4
I0418 11:19:52.272924  6357 net.cpp:435] convlstm1_gate_input_5 <- W_xc_x_5
I0418 11:19:52.272929  6357 net.cpp:409] convlstm1_gate_input_5 -> gate_input_5
I0418 11:19:52.272958  6357 net.cpp:151] Setting up convlstm1_gate_input_5
I0418 11:19:52.272963  6357 net.cpp:158] Top shape: 1 8 2048 15 15 (3686400)
I0418 11:19:52.272986  6357 net.cpp:166] Memory required for data: 564020480
I0418 11:19:52.272989  6357 layer_factory.hpp:77] Creating layer convlstm1_unit_5
I0418 11:19:52.272994  6357 net.cpp:101] Creating Layer convlstm1_unit_5
I0418 11:19:52.272996  6357 net.cpp:435] convlstm1_unit_5 <- c_4
I0418 11:19:52.273000  6357 net.cpp:435] convlstm1_unit_5 <- gate_input_5
I0418 11:19:52.273003  6357 net.cpp:435] convlstm1_unit_5 <- cont_5_convlstm1_cont_slice_4_split_1
I0418 11:19:52.273007  6357 net.cpp:409] convlstm1_unit_5 -> c_5
I0418 11:19:52.273011  6357 net.cpp:409] convlstm1_unit_5 -> h_5
I0418 11:19:52.273051  6357 net.cpp:151] Setting up convlstm1_unit_5
I0418 11:19:52.273054  6357 net.cpp:158] Top shape: 1 8 512 15 15 (921600)
I0418 11:19:52.273057  6357 net.cpp:158] Top shape: 1 8 512 15 15 (921600)
I0418 11:19:52.273058  6357 net.cpp:166] Memory required for data: 571393280
I0418 11:19:52.273061  6357 layer_factory.hpp:77] Creating layer h_5_convlstm1_unit_5_1_split
I0418 11:19:52.273066  6357 net.cpp:101] Creating Layer h_5_convlstm1_unit_5_1_split
I0418 11:19:52.273067  6357 net.cpp:435] h_5_convlstm1_unit_5_1_split <- h_5
I0418 11:19:52.273072  6357 net.cpp:409] h_5_convlstm1_unit_5_1_split -> h_5_convlstm1_unit_5_1_split_0
I0418 11:19:52.273075  6357 net.cpp:409] h_5_convlstm1_unit_5_1_split -> h_5_convlstm1_unit_5_1_split_1
I0418 11:19:52.273100  6357 net.cpp:151] Setting up h_5_convlstm1_unit_5_1_split
I0418 11:19:52.273104  6357 net.cpp:158] Top shape: 1 8 512 15 15 (921600)
I0418 11:19:52.273106  6357 net.cpp:158] Top shape: 1 8 512 15 15 (921600)
I0418 11:19:52.273108  6357 net.cpp:166] Memory required for data: 578766080
I0418 11:19:52.273109  6357 layer_factory.hpp:77] Creating layer convlstm1_h_conted_5
I0418 11:19:52.273114  6357 net.cpp:101] Creating Layer convlstm1_h_conted_5
I0418 11:19:52.273116  6357 net.cpp:435] convlstm1_h_conted_5 <- h_5_convlstm1_unit_5_1_split_0
I0418 11:19:52.273119  6357 net.cpp:435] convlstm1_h_conted_5 <- cont_6_convlstm1_cont_slice_5_split_0
I0418 11:19:52.273123  6357 net.cpp:409] convlstm1_h_conted_5 -> h_conted_5
I0418 11:19:52.273270  6357 net.cpp:151] Setting up convlstm1_h_conted_5
I0418 11:19:52.273274  6357 net.cpp:158] Top shape: 1 8 512 15 15 (921600)
I0418 11:19:52.273277  6357 net.cpp:166] Memory required for data: 582452480
I0418 11:19:52.273278  6357 layer_factory.hpp:77] Creating layer convlstm1_transform_6
I0418 11:19:52.273288  6357 net.cpp:101] Creating Layer convlstm1_transform_6
I0418 11:19:52.273290  6357 net.cpp:435] convlstm1_transform_6 <- h_conted_5
I0418 11:19:52.273294  6357 net.cpp:409] convlstm1_transform_6 -> W_hc_h_5
I0418 11:19:52.330693  6357 net.cpp:151] Setting up convlstm1_transform_6
I0418 11:19:52.330724  6357 net.cpp:158] Top shape: 1 8 2048 15 15 (3686400)
I0418 11:19:52.330727  6357 net.cpp:166] Memory required for data: 597198080
I0418 11:19:52.330735  6357 net.cpp:494] Sharing parameters 'W_hc' owned by layer 'convlstm1_transform_1', param index 0
I0418 11:19:52.330740  6357 layer_factory.hpp:77] Creating layer convlstm1_gate_input_6
I0418 11:19:52.330754  6357 net.cpp:101] Creating Layer convlstm1_gate_input_6
I0418 11:19:52.330759  6357 net.cpp:435] convlstm1_gate_input_6 <- W_hc_h_5
I0418 11:19:52.330765  6357 net.cpp:435] convlstm1_gate_input_6 <- W_xc_x_6
I0418 11:19:52.330770  6357 net.cpp:409] convlstm1_gate_input_6 -> gate_input_6
I0418 11:19:52.330816  6357 net.cpp:151] Setting up convlstm1_gate_input_6
I0418 11:19:52.330818  6357 net.cpp:158] Top shape: 1 8 2048 15 15 (3686400)
I0418 11:19:52.330821  6357 net.cpp:166] Memory required for data: 611943680
I0418 11:19:52.330822  6357 layer_factory.hpp:77] Creating layer convlstm1_unit_6
I0418 11:19:52.330828  6357 net.cpp:101] Creating Layer convlstm1_unit_6
I0418 11:19:52.330832  6357 net.cpp:435] convlstm1_unit_6 <- c_5
I0418 11:19:52.330834  6357 net.cpp:435] convlstm1_unit_6 <- gate_input_6
I0418 11:19:52.330837  6357 net.cpp:435] convlstm1_unit_6 <- cont_6_convlstm1_cont_slice_5_split_1
I0418 11:19:52.330840  6357 net.cpp:409] convlstm1_unit_6 -> c_6
I0418 11:19:52.330868  6357 net.cpp:409] convlstm1_unit_6 -> h_6
I0418 11:19:52.330909  6357 net.cpp:151] Setting up convlstm1_unit_6
I0418 11:19:52.330915  6357 net.cpp:158] Top shape: 1 8 512 15 15 (921600)
I0418 11:19:52.330917  6357 net.cpp:158] Top shape: 1 8 512 15 15 (921600)
I0418 11:19:52.330919  6357 net.cpp:166] Memory required for data: 619316480
I0418 11:19:52.330921  6357 layer_factory.hpp:77] Creating layer h_6_convlstm1_unit_6_1_split
I0418 11:19:52.330926  6357 net.cpp:101] Creating Layer h_6_convlstm1_unit_6_1_split
I0418 11:19:52.330929  6357 net.cpp:435] h_6_convlstm1_unit_6_1_split <- h_6
I0418 11:19:52.330932  6357 net.cpp:409] h_6_convlstm1_unit_6_1_split -> h_6_convlstm1_unit_6_1_split_0
I0418 11:19:52.330937  6357 net.cpp:409] h_6_convlstm1_unit_6_1_split -> h_6_convlstm1_unit_6_1_split_1
I0418 11:19:52.330963  6357 net.cpp:151] Setting up h_6_convlstm1_unit_6_1_split
I0418 11:19:52.330967  6357 net.cpp:158] Top shape: 1 8 512 15 15 (921600)
I0418 11:19:52.330970  6357 net.cpp:158] Top shape: 1 8 512 15 15 (921600)
I0418 11:19:52.330971  6357 net.cpp:166] Memory required for data: 626689280
I0418 11:19:52.330973  6357 layer_factory.hpp:77] Creating layer convlstm1_h_conted_6
I0418 11:19:52.330981  6357 net.cpp:101] Creating Layer convlstm1_h_conted_6
I0418 11:19:52.330983  6357 net.cpp:435] convlstm1_h_conted_6 <- h_6_convlstm1_unit_6_1_split_0
I0418 11:19:52.330986  6357 net.cpp:435] convlstm1_h_conted_6 <- cont_7_convlstm1_cont_slice_6_split_0
I0418 11:19:52.330991  6357 net.cpp:409] convlstm1_h_conted_6 -> h_conted_6
I0418 11:19:52.331625  6357 net.cpp:151] Setting up convlstm1_h_conted_6
I0418 11:19:52.331635  6357 net.cpp:158] Top shape: 1 8 512 15 15 (921600)
I0418 11:19:52.331646  6357 net.cpp:166] Memory required for data: 630375680
I0418 11:19:52.331648  6357 layer_factory.hpp:77] Creating layer convlstm1_transform_7
I0418 11:19:52.331660  6357 net.cpp:101] Creating Layer convlstm1_transform_7
I0418 11:19:52.331663  6357 net.cpp:435] convlstm1_transform_7 <- h_conted_6
I0418 11:19:52.331668  6357 net.cpp:409] convlstm1_transform_7 -> W_hc_h_6
I0418 11:19:52.388231  6357 net.cpp:151] Setting up convlstm1_transform_7
I0418 11:19:52.388270  6357 net.cpp:158] Top shape: 1 8 2048 15 15 (3686400)
I0418 11:19:52.388273  6357 net.cpp:166] Memory required for data: 645121280
I0418 11:19:52.388284  6357 net.cpp:494] Sharing parameters 'W_hc' owned by layer 'convlstm1_transform_1', param index 0
I0418 11:19:52.388289  6357 layer_factory.hpp:77] Creating layer convlstm1_gate_input_7
I0418 11:19:52.388303  6357 net.cpp:101] Creating Layer convlstm1_gate_input_7
I0418 11:19:52.388308  6357 net.cpp:435] convlstm1_gate_input_7 <- W_hc_h_6
I0418 11:19:52.388314  6357 net.cpp:435] convlstm1_gate_input_7 <- W_xc_x_7
I0418 11:19:52.388317  6357 net.cpp:409] convlstm1_gate_input_7 -> gate_input_7
I0418 11:19:52.388351  6357 net.cpp:151] Setting up convlstm1_gate_input_7
I0418 11:19:52.388355  6357 net.cpp:158] Top shape: 1 8 2048 15 15 (3686400)
I0418 11:19:52.388356  6357 net.cpp:166] Memory required for data: 659866880
I0418 11:19:52.388358  6357 layer_factory.hpp:77] Creating layer convlstm1_unit_7
I0418 11:19:52.388363  6357 net.cpp:101] Creating Layer convlstm1_unit_7
I0418 11:19:52.388367  6357 net.cpp:435] convlstm1_unit_7 <- c_6
I0418 11:19:52.388370  6357 net.cpp:435] convlstm1_unit_7 <- gate_input_7
I0418 11:19:52.388373  6357 net.cpp:435] convlstm1_unit_7 <- cont_7_convlstm1_cont_slice_6_split_1
I0418 11:19:52.388377  6357 net.cpp:409] convlstm1_unit_7 -> c_7
I0418 11:19:52.388381  6357 net.cpp:409] convlstm1_unit_7 -> h_7
I0418 11:19:52.388419  6357 net.cpp:151] Setting up convlstm1_unit_7
I0418 11:19:52.388424  6357 net.cpp:158] Top shape: 1 8 512 15 15 (921600)
I0418 11:19:52.388427  6357 net.cpp:158] Top shape: 1 8 512 15 15 (921600)
I0418 11:19:52.388428  6357 net.cpp:166] Memory required for data: 667239680
I0418 11:19:52.388430  6357 layer_factory.hpp:77] Creating layer h_7_convlstm1_unit_7_1_split
I0418 11:19:52.388435  6357 net.cpp:101] Creating Layer h_7_convlstm1_unit_7_1_split
I0418 11:19:52.388456  6357 net.cpp:435] h_7_convlstm1_unit_7_1_split <- h_7
I0418 11:19:52.388461  6357 net.cpp:409] h_7_convlstm1_unit_7_1_split -> h_7_convlstm1_unit_7_1_split_0
I0418 11:19:52.388466  6357 net.cpp:409] h_7_convlstm1_unit_7_1_split -> h_7_convlstm1_unit_7_1_split_1
I0418 11:19:52.388495  6357 net.cpp:151] Setting up h_7_convlstm1_unit_7_1_split
I0418 11:19:52.388500  6357 net.cpp:158] Top shape: 1 8 512 15 15 (921600)
I0418 11:19:52.388502  6357 net.cpp:158] Top shape: 1 8 512 15 15 (921600)
I0418 11:19:52.388505  6357 net.cpp:166] Memory required for data: 674612480
I0418 11:19:52.388506  6357 layer_factory.hpp:77] Creating layer convlstm1_h_conted_7
I0418 11:19:52.388512  6357 net.cpp:101] Creating Layer convlstm1_h_conted_7
I0418 11:19:52.388514  6357 net.cpp:435] convlstm1_h_conted_7 <- h_7_convlstm1_unit_7_1_split_0
I0418 11:19:52.388516  6357 net.cpp:435] convlstm1_h_conted_7 <- cont_8_convlstm1_cont_slice_7_split_0
I0418 11:19:52.388521  6357 net.cpp:409] convlstm1_h_conted_7 -> h_conted_7
I0418 11:19:52.388671  6357 net.cpp:151] Setting up convlstm1_h_conted_7
I0418 11:19:52.388679  6357 net.cpp:158] Top shape: 1 8 512 15 15 (921600)
I0418 11:19:52.388680  6357 net.cpp:166] Memory required for data: 678298880
I0418 11:19:52.388682  6357 layer_factory.hpp:77] Creating layer convlstm1_transform_8
I0418 11:19:52.388694  6357 net.cpp:101] Creating Layer convlstm1_transform_8
I0418 11:19:52.388695  6357 net.cpp:435] convlstm1_transform_8 <- h_conted_7
I0418 11:19:52.388700  6357 net.cpp:409] convlstm1_transform_8 -> W_hc_h_7
I0418 11:19:52.445785  6357 net.cpp:151] Setting up convlstm1_transform_8
I0418 11:19:52.445817  6357 net.cpp:158] Top shape: 1 8 2048 15 15 (3686400)
I0418 11:19:52.445819  6357 net.cpp:166] Memory required for data: 693044480
I0418 11:19:52.445827  6357 net.cpp:494] Sharing parameters 'W_hc' owned by layer 'convlstm1_transform_1', param index 0
I0418 11:19:52.445833  6357 layer_factory.hpp:77] Creating layer convlstm1_gate_input_8
I0418 11:19:52.445845  6357 net.cpp:101] Creating Layer convlstm1_gate_input_8
I0418 11:19:52.445849  6357 net.cpp:435] convlstm1_gate_input_8 <- W_hc_h_7
I0418 11:19:52.445855  6357 net.cpp:435] convlstm1_gate_input_8 <- W_xc_x_8
I0418 11:19:52.445864  6357 net.cpp:409] convlstm1_gate_input_8 -> gate_input_8
I0418 11:19:52.445894  6357 net.cpp:151] Setting up convlstm1_gate_input_8
I0418 11:19:52.445899  6357 net.cpp:158] Top shape: 1 8 2048 15 15 (3686400)
I0418 11:19:52.445904  6357 net.cpp:166] Memory required for data: 707790080
I0418 11:19:52.445905  6357 layer_factory.hpp:77] Creating layer convlstm1_unit_8
I0418 11:19:52.445910  6357 net.cpp:101] Creating Layer convlstm1_unit_8
I0418 11:19:52.445912  6357 net.cpp:435] convlstm1_unit_8 <- c_7
I0418 11:19:52.445915  6357 net.cpp:435] convlstm1_unit_8 <- gate_input_8
I0418 11:19:52.445919  6357 net.cpp:435] convlstm1_unit_8 <- cont_8_convlstm1_cont_slice_7_split_1
I0418 11:19:52.445921  6357 net.cpp:409] convlstm1_unit_8 -> c_8
I0418 11:19:52.445927  6357 net.cpp:409] convlstm1_unit_8 -> h_8
I0418 11:19:52.445972  6357 net.cpp:151] Setting up convlstm1_unit_8
I0418 11:19:52.445977  6357 net.cpp:158] Top shape: 1 8 512 15 15 (921600)
I0418 11:19:52.445981  6357 net.cpp:158] Top shape: 1 8 512 15 15 (921600)
I0418 11:19:52.445982  6357 net.cpp:166] Memory required for data: 715162880
I0418 11:19:52.445984  6357 layer_factory.hpp:77] Creating layer h_8_convlstm1_unit_8_1_split
I0418 11:19:52.445991  6357 net.cpp:101] Creating Layer h_8_convlstm1_unit_8_1_split
I0418 11:19:52.445992  6357 net.cpp:435] h_8_convlstm1_unit_8_1_split <- h_8
I0418 11:19:52.446007  6357 net.cpp:409] h_8_convlstm1_unit_8_1_split -> h_8_convlstm1_unit_8_1_split_0
I0418 11:19:52.446010  6357 net.cpp:409] h_8_convlstm1_unit_8_1_split -> h_8_convlstm1_unit_8_1_split_1
I0418 11:19:52.446039  6357 net.cpp:151] Setting up h_8_convlstm1_unit_8_1_split
I0418 11:19:52.446046  6357 net.cpp:158] Top shape: 1 8 512 15 15 (921600)
I0418 11:19:52.446049  6357 net.cpp:158] Top shape: 1 8 512 15 15 (921600)
I0418 11:19:52.446050  6357 net.cpp:166] Memory required for data: 722535680
I0418 11:19:52.446071  6357 layer_factory.hpp:77] Creating layer convlstm1_h_conted_8
I0418 11:19:52.446079  6357 net.cpp:101] Creating Layer convlstm1_h_conted_8
I0418 11:19:52.446080  6357 net.cpp:435] convlstm1_h_conted_8 <- h_8_convlstm1_unit_8_1_split_0
I0418 11:19:52.446084  6357 net.cpp:435] convlstm1_h_conted_8 <- cont_9_convlstm1_cont_slice_8_split_0
I0418 11:19:52.446086  6357 net.cpp:409] convlstm1_h_conted_8 -> h_conted_8
I0418 11:19:52.446751  6357 net.cpp:151] Setting up convlstm1_h_conted_8
I0418 11:19:52.446760  6357 net.cpp:158] Top shape: 1 8 512 15 15 (921600)
I0418 11:19:52.446763  6357 net.cpp:166] Memory required for data: 726222080
I0418 11:19:52.446764  6357 layer_factory.hpp:77] Creating layer convlstm1_transform_9
I0418 11:19:52.446775  6357 net.cpp:101] Creating Layer convlstm1_transform_9
I0418 11:19:52.446777  6357 net.cpp:435] convlstm1_transform_9 <- h_conted_8
I0418 11:19:52.446784  6357 net.cpp:409] convlstm1_transform_9 -> W_hc_h_8
I0418 11:19:52.503597  6357 net.cpp:151] Setting up convlstm1_transform_9
I0418 11:19:52.503624  6357 net.cpp:158] Top shape: 1 8 2048 15 15 (3686400)
I0418 11:19:52.503626  6357 net.cpp:166] Memory required for data: 740967680
I0418 11:19:52.503633  6357 net.cpp:494] Sharing parameters 'W_hc' owned by layer 'convlstm1_transform_1', param index 0
I0418 11:19:52.503638  6357 layer_factory.hpp:77] Creating layer convlstm1_gate_input_9
I0418 11:19:52.503649  6357 net.cpp:101] Creating Layer convlstm1_gate_input_9
I0418 11:19:52.503653  6357 net.cpp:435] convlstm1_gate_input_9 <- W_hc_h_8
I0418 11:19:52.503659  6357 net.cpp:435] convlstm1_gate_input_9 <- W_xc_x_9
I0418 11:19:52.503664  6357 net.cpp:409] convlstm1_gate_input_9 -> gate_input_9
I0418 11:19:52.503692  6357 net.cpp:151] Setting up convlstm1_gate_input_9
I0418 11:19:52.503697  6357 net.cpp:158] Top shape: 1 8 2048 15 15 (3686400)
I0418 11:19:52.503700  6357 net.cpp:166] Memory required for data: 755713280
I0418 11:19:52.503700  6357 layer_factory.hpp:77] Creating layer convlstm1_unit_9
I0418 11:19:52.503705  6357 net.cpp:101] Creating Layer convlstm1_unit_9
I0418 11:19:52.503707  6357 net.cpp:435] convlstm1_unit_9 <- c_8
I0418 11:19:52.503710  6357 net.cpp:435] convlstm1_unit_9 <- gate_input_9
I0418 11:19:52.503713  6357 net.cpp:435] convlstm1_unit_9 <- cont_9_convlstm1_cont_slice_8_split_1
I0418 11:19:52.503717  6357 net.cpp:409] convlstm1_unit_9 -> c_9
I0418 11:19:52.503722  6357 net.cpp:409] convlstm1_unit_9 -> h_9
I0418 11:19:52.503760  6357 net.cpp:151] Setting up convlstm1_unit_9
I0418 11:19:52.503765  6357 net.cpp:158] Top shape: 1 8 512 15 15 (921600)
I0418 11:19:52.503768  6357 net.cpp:158] Top shape: 1 8 512 15 15 (921600)
I0418 11:19:52.503769  6357 net.cpp:166] Memory required for data: 763086080
I0418 11:19:52.503772  6357 layer_factory.hpp:77] Creating layer h_9_convlstm1_unit_9_1_split
I0418 11:19:52.503777  6357 net.cpp:101] Creating Layer h_9_convlstm1_unit_9_1_split
I0418 11:19:52.503779  6357 net.cpp:435] h_9_convlstm1_unit_9_1_split <- h_9
I0418 11:19:52.503782  6357 net.cpp:409] h_9_convlstm1_unit_9_1_split -> h_9_convlstm1_unit_9_1_split_0
I0418 11:19:52.503787  6357 net.cpp:409] h_9_convlstm1_unit_9_1_split -> h_9_convlstm1_unit_9_1_split_1
I0418 11:19:52.503816  6357 net.cpp:151] Setting up h_9_convlstm1_unit_9_1_split
I0418 11:19:52.503821  6357 net.cpp:158] Top shape: 1 8 512 15 15 (921600)
I0418 11:19:52.503823  6357 net.cpp:158] Top shape: 1 8 512 15 15 (921600)
I0418 11:19:52.503825  6357 net.cpp:166] Memory required for data: 770458880
I0418 11:19:52.503826  6357 layer_factory.hpp:77] Creating layer convlstm1_h_conted_9
I0418 11:19:52.503834  6357 net.cpp:101] Creating Layer convlstm1_h_conted_9
I0418 11:19:52.503835  6357 net.cpp:435] convlstm1_h_conted_9 <- h_9_convlstm1_unit_9_1_split_0
I0418 11:19:52.503839  6357 net.cpp:435] convlstm1_h_conted_9 <- cont_10_convlstm1_cont_slice_9_split_0
I0418 11:19:52.503841  6357 net.cpp:409] convlstm1_h_conted_9 -> h_conted_9
I0418 11:19:52.504004  6357 net.cpp:151] Setting up convlstm1_h_conted_9
I0418 11:19:52.504024  6357 net.cpp:158] Top shape: 1 8 512 15 15 (921600)
I0418 11:19:52.504026  6357 net.cpp:166] Memory required for data: 774145280
I0418 11:19:52.504029  6357 layer_factory.hpp:77] Creating layer convlstm1_transform_10
I0418 11:19:52.504037  6357 net.cpp:101] Creating Layer convlstm1_transform_10
I0418 11:19:52.504040  6357 net.cpp:435] convlstm1_transform_10 <- h_conted_9
I0418 11:19:52.504043  6357 net.cpp:409] convlstm1_transform_10 -> W_hc_h_9
I0418 11:19:52.561045  6357 net.cpp:151] Setting up convlstm1_transform_10
I0418 11:19:52.561070  6357 net.cpp:158] Top shape: 1 8 2048 15 15 (3686400)
I0418 11:19:52.561074  6357 net.cpp:166] Memory required for data: 788890880
I0418 11:19:52.561080  6357 net.cpp:494] Sharing parameters 'W_hc' owned by layer 'convlstm1_transform_1', param index 0
I0418 11:19:52.561085  6357 layer_factory.hpp:77] Creating layer convlstm1_gate_input_10
I0418 11:19:52.561098  6357 net.cpp:101] Creating Layer convlstm1_gate_input_10
I0418 11:19:52.561102  6357 net.cpp:435] convlstm1_gate_input_10 <- W_hc_h_9
I0418 11:19:52.561108  6357 net.cpp:435] convlstm1_gate_input_10 <- W_xc_x_10
I0418 11:19:52.561113  6357 net.cpp:409] convlstm1_gate_input_10 -> gate_input_10
I0418 11:19:52.561144  6357 net.cpp:151] Setting up convlstm1_gate_input_10
I0418 11:19:52.561148  6357 net.cpp:158] Top shape: 1 8 2048 15 15 (3686400)
I0418 11:19:52.561149  6357 net.cpp:166] Memory required for data: 803636480
I0418 11:19:52.561151  6357 layer_factory.hpp:77] Creating layer convlstm1_unit_10
I0418 11:19:52.561156  6357 net.cpp:101] Creating Layer convlstm1_unit_10
I0418 11:19:52.561159  6357 net.cpp:435] convlstm1_unit_10 <- c_9
I0418 11:19:52.561162  6357 net.cpp:435] convlstm1_unit_10 <- gate_input_10
I0418 11:19:52.561164  6357 net.cpp:435] convlstm1_unit_10 <- cont_10_convlstm1_cont_slice_9_split_1
I0418 11:19:52.561169  6357 net.cpp:409] convlstm1_unit_10 -> c_10
I0418 11:19:52.561173  6357 net.cpp:409] convlstm1_unit_10 -> h_10
I0418 11:19:52.561213  6357 net.cpp:151] Setting up convlstm1_unit_10
I0418 11:19:52.561219  6357 net.cpp:158] Top shape: 1 8 512 15 15 (921600)
I0418 11:19:52.561223  6357 net.cpp:158] Top shape: 1 8 512 15 15 (921600)
I0418 11:19:52.561224  6357 net.cpp:166] Memory required for data: 811009280
I0418 11:19:52.561225  6357 layer_factory.hpp:77] Creating layer convlstm1_
I0418 11:19:52.561246  6357 net.cpp:101] Creating Layer convlstm1_
I0418 11:19:52.561254  6357 net.cpp:435] convlstm1_ <- c_10
I0418 11:19:52.561256  6357 net.cpp:409] convlstm1_ -> c_T
I0418 11:19:52.561275  6357 net.cpp:151] Setting up convlstm1_
I0418 11:19:52.561278  6357 net.cpp:158] Top shape: 1 8 512 15 15 (921600)
I0418 11:19:52.561280  6357 net.cpp:166] Memory required for data: 814695680
I0418 11:19:52.561282  6357 layer_factory.hpp:77] Creating layer convlstm1_h_concat
I0418 11:19:52.561290  6357 net.cpp:101] Creating Layer convlstm1_h_concat
I0418 11:19:52.561292  6357 net.cpp:435] convlstm1_h_concat <- h_1_convlstm1_unit_1_1_split_1
I0418 11:19:52.561295  6357 net.cpp:435] convlstm1_h_concat <- h_2_convlstm1_unit_2_1_split_1
I0418 11:19:52.561298  6357 net.cpp:435] convlstm1_h_concat <- h_3_convlstm1_unit_3_1_split_1
I0418 11:19:52.561301  6357 net.cpp:435] convlstm1_h_concat <- h_4_convlstm1_unit_4_1_split_1
I0418 11:19:52.561305  6357 net.cpp:435] convlstm1_h_concat <- h_5_convlstm1_unit_5_1_split_1
I0418 11:19:52.561306  6357 net.cpp:435] convlstm1_h_concat <- h_6_convlstm1_unit_6_1_split_1
I0418 11:19:52.561309  6357 net.cpp:435] convlstm1_h_concat <- h_7_convlstm1_unit_7_1_split_1
I0418 11:19:52.561311  6357 net.cpp:435] convlstm1_h_concat <- h_8_convlstm1_unit_8_1_split_1
I0418 11:19:52.561314  6357 net.cpp:435] convlstm1_h_concat <- h_9_convlstm1_unit_9_1_split_1
I0418 11:19:52.561316  6357 net.cpp:435] convlstm1_h_concat <- h_10
I0418 11:19:52.561321  6357 net.cpp:409] convlstm1_h_concat -> h
I0418 11:19:52.561342  6357 net.cpp:151] Setting up convlstm1_h_concat
I0418 11:19:52.561345  6357 net.cpp:158] Top shape: 10 8 512 15 15 (9216000)
I0418 11:19:52.561347  6357 net.cpp:166] Memory required for data: 851559680
I0418 11:19:52.561373  6357 layer_factory.hpp:77] Creating layer h_pseudoloss
I0418 11:19:52.561378  6357 net.cpp:101] Creating Layer h_pseudoloss
I0418 11:19:52.561380  6357 net.cpp:435] h_pseudoloss <- h
I0418 11:19:52.561384  6357 net.cpp:409] h_pseudoloss -> h_pseudoloss
I0418 11:19:52.581921  6357 net.cpp:151] Setting up h_pseudoloss
…
I0418 11:19:52.582204  6357 net.cpp:229] convlstm1_ does not need backward computation.
I0418 11:19:52.582206  6357 net.cpp:271] This network produces output c_T
I0418 11:19:52.582212  6357 net.cpp:271] This network produces output h_pseudoloss
I0418 11:19:52.629638  6357 net.cpp:284] Network initialization done.
I0418 11:19:52.629912  6357 recurrent_layer.cpp:164] Adding parameter 0: W_xc
I0418 11:19:52.629927  6357 recurrent_layer.cpp:164] Adding parameter 1: b_c
I0418 11:19:52.629935  6357 recurrent_layer.cpp:164] Adding parameter 2: W_hc
I0418 11:19:52.641575  6357 net.cpp:151] Setting up convlstm1
I0418 11:19:52.641615  6357 net.cpp:158] Top shape: 10 8 512 15 15 (9216000)
I0418 11:19:52.641621  6357 net.cpp:166] Memory required for data: 595539840
I0418 11:19:52.641687  6357 layer_factory.hpp:77] Creating layer convlstm1_convlstm1_0_split
I0418 11:19:52.641712  6357 net.cpp:101] Creating Layer convlstm1_convlstm1_0_split
I0418 11:19:52.641728  6357 net.cpp:435] convlstm1_convlstm1_0_split <- convlstm1
I0418 11:19:52.641748  6357 net.cpp:409] convlstm1_convlstm1_0_split -> convlstm1_convlstm1_0_split_0
I0418 11:19:52.641772  6357 net.cpp:409] convlstm1_convlstm1_0_split -> convlstm1_convlstm1_0_split_1
I0418 11:19:52.641860  6357 net.cpp:151] Setting up convlstm1_convlstm1_0_split
I0418 11:19:52.641873  6357 net.cpp:158] Top shape: 10 8 512 15 15 (9216000)
I0418 11:19:52.641911  6357 net.cpp:158] Top shape: 10 8 512 15 15 (9216000)
I0418 11:19:52.641919  6357 net.cpp:166] Memory required for data: 669267840
I0418 11:19:52.641927  6357 layer_factory.hpp:77] Creating layer convlstm1_slice
I0418 11:19:52.641940  6357 net.cpp:101] Creating Layer convlstm1_slice
I0418 11:19:52.641947  6357 net.cpp:435] convlstm1_slice <- convlstm1_convlstm1_0_split_0
I0418 11:19:52.641962  6357 net.cpp:409] convlstm1_slice -> convlstm1_slice_1
I0418 11:19:52.641976  6357 net.cpp:409] convlstm1_slice -> convlstm1_slice_2
I0418 11:19:52.642051  6357 net.cpp:151] Setting up convlstm1_slice
I0418 11:19:52.642065  6357 net.cpp:158] Top shape: 1 8 512 15 15 (921600)
I0418 11:19:52.642073  6357 net.cpp:158] Top shape: 9 8 512 15 15 (8294400)
I0418 11:19:52.642079  6357 net.cpp:166] Memory required for data: 706131840
I0418 11:19:52.642086  6357 layer_factory.hpp:77] Creating layer convlstm1_slice_1_silence
I0418 11:19:52.642097  6357 net.cpp:101] Creating Layer convlstm1_slice_1_silence
I0418 11:19:52.642104  6357 net.cpp:435] convlstm1_slice_1_silence <- convlstm1_slice_1
I0418 11:19:52.642115  6357 net.cpp:151] Setting up convlstm1_slice_1_silence
I0418 11:19:52.642122  6357 net.cpp:166] Memory required for data: 706131840
I0418 11:19:52.642127  6357 layer_factory.hpp:77] Creating layer deconv1_1
I0418 11:19:52.642180  6357 net.cpp:101] Creating Layer deconv1_1
I0418 11:19:52.642191  6357 net.cpp:435] deconv1_1 <- convlstm1_convlstm1_0_split_1
I0418 11:19:52.642205  6357 net.cpp:409] deconv1_1 -> deconv1_1
I0418 11:19:52.654618  6357 net.cpp:151] Setting up deconv1_1
I0418 11:19:52.654639  6357 net.cpp:158] Top shape: 10 8 256 29 29 (17223680)
I0418 11:19:52.654642  6357 net.cpp:166] Memory required for data: 775026560
I0418 11:19:52.654652  6357 layer_factory.hpp:77] Creating layer deconv_relu1_1
I0418 11:19:52.654661  6357 net.cpp:101] Creating Layer deconv_relu1_1
I0418 11:19:52.654665  6357 net.cpp:435] deconv_relu1_1 <- deconv1_1
I0418 11:19:52.654680  6357 net.cpp:396] deconv_relu1_1 -> deconv1_1 (in-place)
I0418 11:19:52.654690  6357 net.cpp:151] Setting up deconv_relu1_1
I0418 11:19:52.654695  6357 net.cpp:158] Top shape: 10 8 256 29 29 (17223680)
I0418 11:19:52.654698  6357 net.cpp:166] Memory required for data: 843921280
I0418 11:19:52.654702  6357 layer_factory.hpp:77] Creating layer deconv2_1
I0418 11:19:52.654722  6357 net.cpp:101] Creating Layer deconv2_1
I0418 11:19:52.654726  6357 net.cpp:435] deconv2_1 <- deconv1_1
I0418 11:19:52.654732  6357 net.cpp:409] deconv2_1 -> deconv2_1
I0418 11:19:52.663111  6357 net.cpp:151] Setting up deconv2_1
I0418 11:19:52.663131  6357 net.cpp:158] Top shape: 10 8 128 57 57 (33269760)
I0418 11:19:52.663134  6357 net.cpp:166] Memory required for data: 977000320
I0418 11:19:52.663143  6357 layer_factory.hpp:77] Creating layer deconv_relu2_1
I0418 11:19:52.663151  6357 net.cpp:101] Creating Layer deconv_relu2_1
I0418 11:19:52.663156  6357 net.cpp:435] deconv_relu2_1 <- deconv2_1
I0418 11:19:52.663166  6357 net.cpp:396] deconv_relu2_1 -> deconv2_1 (in-place)
I0418 11:19:52.663173  6357 net.cpp:151] Setting up deconv_relu2_1
I0418 11:19:52.663177  6357 net.cpp:158] Top shape: 10 8 128 57 57 (33269760)
I0418 11:19:52.663180  6357 net.cpp:166] Memory required for data: 1110079360
I0418 11:19:52.663199  6357 layer_factory.hpp:77] Creating layer deconv3_1
I0418 11:19:52.663208  6357 net.cpp:101] Creating Layer deconv3_1
I0418 11:19:52.663213  6357 net.cpp:435] deconv3_1 <- deconv2_1
I0418 11:19:52.663221  6357 net.cpp:409] deconv3_1 -> deconv3_1
I0418 11:19:52.663717  6357 net.cpp:151] Setting up deconv3_1
I0418 11:19:52.663729  6357 net.cpp:158] Top shape: 10 8 1 225 225 (4050000)
I0418 11:19:52.663733  6357 net.cpp:166] Memory required for data: 1126279360
I0418 11:19:52.663740  6357 layer_factory.hpp:77] Creating layer deconv_tanh3_1
I0418 11:19:52.663749  6357 net.cpp:101] Creating Layer deconv_tanh3_1
I0418 11:19:52.663753  6357 net.cpp:435] deconv_tanh3_1 <- deconv3_1
I0418 11:19:52.663759  6357 net.cpp:396] deconv_tanh3_1 -> deconv3_1 (in-place)
I0418 11:19:52.663790  6357 net.cpp:151] Setting up deconv_tanh3_1
I0418 11:19:52.663795  6357 net.cpp:158] Top shape: 10 8 1 225 225 (4050000)
I0418 11:19:52.663799  6357 net.cpp:166] Memory required for data: 1142479360
I0418 11:19:52.663801  6357 layer_factory.hpp:77] Creating layer deconv1_2
I0418 11:19:52.663820  6357 net.cpp:101] Creating Layer deconv1_2
I0418 11:19:52.663823  6357 net.cpp:435] deconv1_2 <- convlstm1_slice_2
I0418 11:19:52.663831  6357 net.cpp:409] deconv1_2 -> deconv1_2
I0418 11:19:52.674773  6357 net.cpp:151] Setting up deconv1_2
I0418 11:19:52.674789  6357 net.cpp:158] Top shape: 9 8 256 29 29 (15501312)
I0418 11:19:52.674793  6357 net.cpp:166] Memory required for data: 1204484608
I0418 11:19:52.674806  6357 layer_factory.hpp:77] Creating layer deconv_relu1_2
I0418 11:19:52.674813  6357 net.cpp:101] Creating Layer deconv_relu1_2
I0418 11:19:52.674816  6357 net.cpp:435] deconv_relu1_2 <- deconv1_2
I0418 11:19:52.674823  6357 net.cpp:396] deconv_relu1_2 -> deconv1_2 (in-place)
I0418 11:19:52.674829  6357 net.cpp:151] Setting up deconv_relu1_2
I0418 11:19:52.674834  6357 net.cpp:158] Top shape: 9 8 256 29 29 (15501312)
I0418 11:19:52.674836  6357 net.cpp:166] Memory required for data: 1266489856
I0418 11:19:52.674839  6357 layer_factory.hpp:77] Creating layer deconv2_2
I0418 11:19:52.674845  6357 net.cpp:101] Creating Layer deconv2_2
I0418 11:19:52.674849  6357 net.cpp:435] deconv2_2 <- deconv1_2
I0418 11:19:52.674854  6357 net.cpp:409] deconv2_2 -> deconv2_2
I0418 11:19:52.682374  6357 net.cpp:151] Setting up deconv2_2
I0418 11:19:52.682389  6357 net.cpp:158] Top shape: 9 8 128 57 57 (29942784)
I0418 11:19:52.682391  6357 net.cpp:166] Memory required for data: 1386260992
I0418 11:19:52.682399  6357 layer_factory.hpp:77] Creating layer deconv_relu2_2
I0418 11:19:52.682404  6357 net.cpp:101] Creating Layer deconv_relu2_2
I0418 11:19:52.682407  6357 net.cpp:435] deconv_relu2_2 <- deconv2_2
I0418 11:19:52.682413  6357 net.cpp:396] deconv_relu2_2 -> deconv2_2 (in-place)
I0418 11:19:52.682420  6357 net.cpp:151] Setting up deconv_relu2_2
I0418 11:19:52.682425  6357 net.cpp:158] Top shape: 9 8 128 57 57 (29942784)
I0418 11:19:52.682427  6357 net.cpp:166] Memory required for data: 1506032128
I0418 11:19:52.682430  6357 layer_factory.hpp:77] Creating layer deconv3_2
I0418 11:19:52.682437  6357 net.cpp:101] Creating Layer deconv3_2
I0418 11:19:52.682440  6357 net.cpp:435] deconv3_2 <- deconv2_2
I0418 11:19:52.682447  6357 net.cpp:409] deconv3_2 -> deconv3_2
I0418 11:19:52.682852  6357 net.cpp:151] Setting up deconv3_2
I0418 11:19:52.682862  6357 net.cpp:158] Top shape: 9 8 1 225 225 (3645000)
I0418 11:19:52.682865  6357 net.cpp:166] Memory required for data: 1520612128
I0418 11:19:52.682871  6357 layer_factory.hpp:77] Creating layer deconv_tanh3_2
I0418 11:19:52.682876  6357 net.cpp:101] Creating Layer deconv_tanh3_2
I0418 11:19:52.682879  6357 net.cpp:435] deconv_tanh3_2 <- deconv3_2
I0418 11:19:52.682889  6357 net.cpp:396] deconv_tanh3_2 -> deconv3_2 (in-place)
I0418 11:19:52.682894  6357 net.cpp:151] Setting up deconv_tanh3_2
I0418 11:19:52.682899  6357 net.cpp:158] Top shape: 9 8 1 225 225 (3645000)
I0418 11:19:52.682901  6357 net.cpp:166] Memory required for data: 1535192128
I0418 11:19:52.682904  6357 layer_factory.hpp:77] Creating layer loss_current
I0418 11:19:52.682922  6357 net.cpp:101] Creating Layer loss_current
I0418 11:19:52.682925  6357 net.cpp:435] loss_current <- deconv3_1
I0418 11:19:52.682929  6357 net.cpp:435] loss_current <- data_data_0_split_2
I0418 11:19:52.682935  6357 net.cpp:409] loss_current -> loss_current
…
